models/conv_net.onnx (onnx, 251478 bytes, 10 tensors)

conv1.weight f4 [6, 3, 5, 5]
000000 34 64 b3 bc 02 1b 07 bd fc 94 03 3d 8c 70 bf 3d
       -0.021898367 -0.03298474 0.032124504 0.093476385
000010 7b 0d dc bd a6 98 b5 3d fd 0a eb bd 14 9f 9c bd
       -0.10744759 0.08867006 -0.11476705 -0.07647529
000020 42 da ae 3d c6 d9 bc 3d d0 5d c3 3d 84 2c 48 3d
       0.08537723 0.092212245 0.09539378 0.04887058
000030 17 4c d5 bd 08 db 98 3d fd cd 83 bd 0a 48 d1 3d
       -0.104149036 0.07463652 -0.064357735 0.102188185
000040 a4 8e 99 3d e2 30 d1 3d f8 55 9b 3c 40 61 1b bc
       0.0749791 0.10214402 0.018961892 -0.009483635
000050 52 3b bd 3d c8 8e ad 3d 20 d0 23 3d 6e 95 b0 3d
       0.0923983 0.08474499 0.039993405 0.086222515
000060 f0 ef 50 3c 80 3a d1 ba d8 cb 07 3d d4 49 d7 bc
       0.012752518 -0.0015962869 0.033153385 -0.026280321
000070 90 a2 ae 3b 2c 9c 0d 3d e8 9c f3 bc b4 56 ab 3d
       0.0053294376 0.034572765 -0.029737905 0.08366147
000080 5c ba a1 bc 9e d9 ea bd c4 a2 15 3d 38 75 05 bc
       -0.019742183 -0.114672884 0.03653218 -0.008145623
000090 cc ba 95 bd 04 2e be 3d 30 6f 2a 3d 14 35 5c 3d
       -0.07311019 0.092861205 0.041609943 0.053761557
0000a0 10 31 40 3d d0 30 d0 bb 7c b9 c0 3d 66 da cf bd
       0.04692179 -0.006353475 0.09410378 -0.10149078
0000b0 a5 b8 d1 bd 42 3e 18 bd d8 2d dd 3c 70 fa ff 3b
       -0.10240296 -0.03716875 0.026999399 0.007811837
0000c0 3d 10 bb bd a5 e0 af bd 50 0c a9 bd 20 c6 75 3d
       -0.091339566 -0.085877694 -0.082543015 0.0600034
0000d0 58 0c 8a 3d 42 f5 c3 bd 58 80 92 3d bc 49 a7 bc
       0.06740636 -0.095682636 0.07153386 -0.020420901
0000e0 80 9e cc bc 1c aa d2 3d 46 d6 ea 3d bc 82 bd bd
       -0.024977922 0.10286352 0.11466651 -0.09253451
0000f0 50 3b ba 3d a8 fa ef bc 48 1d cf 3d 2c a1 46 3d
       0.09093344 -0.029294327 0.10113007 0.04849355
000100 b8 c4 1b bd f4 08 c2 3d 24 3f 21 3d f6 af c8 3d
       -0.038029402 0.09474364 0.039366856 0.09799187
000110 e0 78 28 bd c4 7e 82 bd a0 31 fd bb 9c 8d 88 3d
       -0.0411309 -0.06371835 -0.007726863 0.06667635
000120 0c 92 f8 bc c4 85 fa bc bf a9 df bd c2 e1 a8 bd
       -0.030343078 -0.030581363 -0.109210484 -0.08246185
000130 f6 4e ba bd d0 23 62 3d be 2b ba 3d fc 2e 65 3d
       -0.09097092 0.055209935 0.090903744 0.05595301
000140 43 63 e3 bd 00 aa 82 bc 6c df 74 bd 62 dc 95 3d
       -0.11102917 -0.015950203 -0.059783384 0.07317425
000150 30 f8 d3 3d 26 07 4f bd c6 6c e2 bd a0 4a 11 bd
       0.103500724 -0.050543927 -0.11055903 -0.03547156
000160 5a 43 b0 bd 46 9c b9 bd 3c 92 6a 3d 80 bc 95 bb
       -0.08606596 -0.0906301 0.057268366 -0.00456959
000170 e8 d0 b1 bd f8 f6 d4 3d e4 26 af bc dc ae bf 3d
       -0.08682424 0.10398668 -0.02138085 0.09359524
000180 ee fe 51 bd f0 49 54 bd 30 80 a2 3b d2 8d 08 bd
       -0.05126851 -0.051828325 0.004959129 -0.033338375
000190 f4 ab 49 3d 5a 97 92 3d ac f3 16 bd c0 e4 94 3b
       0.049236253 0.07157774 -0.036853477 0.0045438707
0001a0 6e de 89 bd 50 5e 01 3c 6c b6 8d bd a4 10 56 3d
       -0.06731878 0.007896021 -0.0691956 0.052261963
0001b0 30 95 f8 bc 2e 78 d1 3d 88 e7 bb bc 0b 77 59 bd
       -0.030344576 0.102280006 -0.022937551 -0.053092044
0001c0 40 66 c5 3d 5e 41 90 3d 7c 2c 68 3d fa 3f 81 3d
       0.09638643 0.07043718 0.05668305 0.06311031
0001d0 4b 99 c5 bd 00 05 e8 3b 20 a0 48 3d ae 1b 49 bd
       -0.09648379 0.007080674 0.048980832 -0.049098663
0001e0 ac 9b a4 3d 3e 28 82 bd c0 f7 a6 bb 84 9a d7 bc
       0.080375046 -0.06355332 -0.005095452 -0.026318796
0001f0 7a bf 08 bd 48 77 bd 3c fa e5 95 3d 4e 85 81 3d
       -0.03338573 0.023128167 0.07319255 0.06324254
000200 30 b2 88 3d cc 71 0f bd 1c 6b f8 bc c1 63 c2 bd
       0.066746116 -0.035020635 -0.030324511 -0.09491683
000210 d8 fc c6 3d 36 ac e0 3d 76 94 c0 3d 8e 0f c9 3d
       0.09716195 0.10970347 0.09403317 0.0981742
000220 50 cd 94 3c 28 ca 96 bd 8c ae ad bd ee c5 24 bd
       0.018164307 -0.07362777 -0.08480558 -0.040227823
000230 90 71 d9 3b dc 70 79 bd 50 68 8b 3b 40 cf 2a bc
       0.006635852 -0.060898647 0.0042543784 -0.010425389
000240 98 99 9b 3c 2c c7 e4 3d 04 48 05 3d c3 8e be bd
       0.018994138 0.111708015 0.032539383 -0.093045734
000250 1c cf dc bd 80 43 1e bb 7e 48 54 bd 9e e6 bd 3d
       -0.107816905 -0.002414912 -0.051826946 0.09272502
000260 b8 9e b8 3c 5c 38 10 3d e0 1d fd 3c 58 dd 64 bc
       0.02253662 0.03521 0.030898035 -0.013968788
000270 72 2d e3 3d 6c ba a4 3d 86 91 cb 3d 90 f7 a9 3b
       0.110926524 0.0804337 0.09939866 0.0051869825
000280 15 dd 79 bd 3e 60 17 bd 88 d0 31 bd 2c 9d e2 bc
       -0.061001856 -0.036957018 -0.04341176 -0.027662836
000290 b9 84 b4 bd 14 3c e2 3d 54 43 dd 3d 73 02 b0 bd
       -0.08814377 0.11046615 0.108038574 -0.08594217
0002a0 b8 bc c9 bd 34 48 c5 bc 10 8c dc 3d 76 26 dd 3d
       -0.09850448 -0.02408228 0.10768902 0.107983515
0002b0 f4 07 27 3d 2e 96 d5 bd 70 52 a2 3b d4 c7 ad 3d
       0.04077907 -0.10429035 0.004953675 0.0848538
0002c0 c8 3a 19 3d 84 ba 69 bd 2a dc cf 3d 2a 63 33 bd
       0.037409574 -0.05706264 0.10149415 -0.043795742
0002d0 52 d6 d6 3d 82 0b a5 bd 28 36 91 3d 44 03 29 3d
       0.10490097 -0.080588356 0.070904076 0.04126288
0002e0 22 fe bb 3d 8f c1 bd bd ea 0b c5 bd 80 a3 cd 3b
       0.09179331 -0.09265434 -0.09621413 0.0062755942
0002f0 a6 65 37 bd f4 53 9c 3d f2 79 0e bd 9c 87 64 3d
       -0.044774674 0.076332 -0.034784265 0.05579339
000300 c0 b2 67 3d 4e f9 10 bd 40 76 b1 3c a0 11 75 3c
       0.056566954 -0.035394005 0.021662831 0.014957815
000310 cc a1 6e 3d 9a 35 e0 3d 5c 6f 2e bd ec a7 97 bc
       0.05825977 0.10947724 -0.04258667 -0.018512689
000320 6a 63 ad 3d 20 c5 2f 3c 8c 87 a3 3d d4 c7 85 bd
       0.08466227 0.010728151 0.07984838 -0.06532255
000330 40 56 a9 bb 78 8c bb bc f8 5e 9f bc 36 d8 8e bd
       -0.0051677525 -0.02289413 -0.019454464 -0.06974833
000340 e8 34 bb 3d 3a 6c 60 bd 98 8b c0 bc 1e b0 e1 bd
       0.091409504 -0.054790713 -0.023504063 -0.1101992
000350 7c 8f 17 3d 59 58 d9 bd 2c 3a 08 3d 20 66 7d 3b
       0.03700207 -0.10612554 0.033258602 0.0038665608
000360 26 15 a2 bd 1d a8 64 bd 44 db 2f 3d 5a 29 7f bd
       -0.0791419 -0.055824388 0.042933717 -0.062295295
000370 58 95 9c bc da 34 76 bd d6 04 93 3d 58 32 a2 3c
       -0.019114181 -0.060108997 0.07178657 0.019799396
000380 00 23 ef bb 00 01 67 bc 04 b0 7f 3d a3 76 6d bd
       -0.0072978735 -0.0140993595 0.06242372 -0.05797447
000390 78 48 9e bd 60 9a 72 bc a2 e8 5a bd 1f 86 7e bd
       -0.07728666 -0.014807314 -0.053444512 -0.062139627
0003a0 06 26 51 bd 38 dd f2 3c c6 0a e3 bd 12 59 16 bd
       -0.051061653 0.029646501 -0.11086039 -0.036706038
0003b0 20 83 35 3c e0 2d e6 3c 21 08 dd bd b3 f8 df bd
       0.011078626 0.028098047 -0.10792566 -0.109361075
0003c0 88 7b c6 3c 40 b3 90 3c b2 57 c5 3d fc c8 75 3d
       0.024228826 0.017663598 0.09635867 0.060006127
0003d0 0f f2 be bd b8 fb f9 bc aa 0c 7c bd 68 45 9a bd
       -0.09323513 -0.030515537 -0.061535515 -0.075327694
0003e0 69 2c df bd 00 98 af 3c aa 78 b7 3d 1c 0b bc bd
       -0.108971424 0.021434784 0.08958562 -0.091818064
0003f0 c4 71 bd 3d 7e ea ac bd 67 2e c8 bd 4f ce 5e bd
       0.09250215 -0.08443163 -0.097744755 -0.05439597

conv1.bias f4 [6]
000000 e0 59 30 bd c0 07 91 3a c8 d2 03 3d 88 4b 0d bd
       -0.04305446 0.0011064932 0.03218344 -0.03449586
000010 43 09 88 bd 4c f6 84 3d
       -0.066423915 0.0649229

conv2.weight f4 [16, 6, 5, 5]
000000 38 5f 86 3d dd c7 15 bd 10 41 6d 3c 28 e7 57 bd
       0.0656113 -0.036567558 0.014480844 -0.052710682
000010 b0 03 cc 3b 28 83 d8 bc af 44 15 bd 0c b1 99 3c
       0.0062260255 -0.026429728 -0.036442455 0.01876118
000020 90 34 a6 3d ac 60 e9 bc 08 52 ae bc 9e 6e a4 3d
       0.08115494 -0.02848848 -0.02127935 0.08028911
000030 c8 08 f7 3c 32 d8 93 bd 7e b1 a5 3d c8 3d 0a bd
       0.030155554 -0.0721897 0.080904946 -0.033750325
000040 6c b2 df 3c db 3c 93 bd 5c cd d7 3c 30 f4 20 3c
       0.027306758 -0.07189342 0.02634304 0.009823844
000050 b0 a3 82 bc 4e 8c 95 bd 8c 89 c9 bc 58 ff 85 bc
       -0.015947193 -0.073021516 -0.02460172 -0.016357109
000060 54 6a a7 3c 4c e2 92 3c 94 48 6f bd c8 2f a6 bc
       0.020436443 0.017930172 -0.058418825 -0.020286456
000070 88 91 05 bd 2a b0 9f bd 70 45 86 bb ac ac e9 3c
       -0.032609493 -0.077972725 -0.004097633 0.02852472
000080 4e fa 5b bd 26 5c dd bc 8f 62 39 bd 7b 30 81 bd
       -0.053705506 -0.027021479 -0.04526001 -0.06308075
000090 fc ce e0 bc 64 ed 88 bc 20 4c 93 bc cc f8 55 bd
       -0.027442448 -0.01671476 -0.017980635 -0.052239224
0000a0 b2 c4 81 3d 52 f7 9d bd 14 f6 8f 3d 42 a5 94 3d
       0.06336345 -0.07713188 0.070293576 0.07258083
0000b0 be 59 8a 3d c4 92 fe 3c c8 94 7d 3d a9 ed 54 bd
       0.06755398 0.031075843 0.061909467 -0.051984463
0000c0 00 b8 d7 3a 72 63 9d bd 6c 75 a5 3d 78 7d f9 bc
       0.0016458035 -0.07684983 0.08079037 -0.030455336
0000d0 c5 80 23 bd b0 59 47 3d 20 22 94 bc ec 5a 8a 3d
       -0.039917726 0.048669517 -0.018082678 0.06755623
0000e0 90 3f 86 3b 8c 53 3d bd d8 90 1d bc 44 18 9d bd
       0.0040969327 -0.046222255 -0.009617053 -0.07670644
0000f0 c0 82 6e 3c 8e 52 a1 3d 2f d4 9e bd 34 5c a1 3c
       0.01455754 0.07877074 -0.077553146 0.019697286
000100 c2 e8 37 bd b8 81 d7 3c f0 fc e0 3c 3b 68 21 bd
       -0.04489971 0.026306972 0.02746436 -0.039406043
000110 00 0a dc 39 80 16 a5 3b 74 4d 9a 3c 74 c3 bd 3c
       0.0004196912 0.0050380826 0.01883576 0.023164488
000120 5e 99 85 bd d8 2d 47 3c f0 d9 ca 3b fb 6d 8f bd
       -0.06523393 0.012156926 0.006190531 -0.07003399
000130 48 2c 90 3c fc 98 76 3d de ed a5 bd 44 75 5d 3d
       0.01759924 0.06020449 -0.0810201 0.05406691
000140 58 4a 6d 3d 60 b3 dc 3b ed d0 40 bd 40 dd e3 bc
       0.057932228 0.0067352504 -0.047074247 -0.027815461
000150 8e cf 5f bd dc 3f 08 3d 60 33 eb 3c 34 f9 58 3d
       -0.0546413 0.033264026 0.028711021 0.052972034
000160 28 ad 9d bd 00 1e d3 3c ee ff 28 bd 33 67 4e bd
       -0.076990426 0.025771141 -0.0412597 -0.050391387
000170 f5 ad a4 bd 0c 21 91 3d b9 9c 2b bd 80 0e a4 bd
       -0.08040992 0.07086381 -0.04189751 -0.08010578
000180 98 02 58 3c e5 de 1f bd fc 02 66 3d ec 0b 70 bd
       0.013184212 -0.03903093 0.05615519 -0.05860512
000190 c8 43 7a 3c 10 0b f3 bb ac 94 5b 3d dc dc 23 3d
       0.015274949 -0.0074170902 0.05360858 0.04000555
0001a0 67 39 0e bd 68 51 a3 3c c8 39 65 3d 6c 4f 37 3d
       -0.034722712 0.019936278 0.055963308 0.044753477
0001b0 5a 38 8c 3d bc 83 22 3d 30 47 86 bd 60 57 a2 bb
       0.06846686 0.039676413 -0.06556547 -0.0049542636
0001c0 54 de 6a 3d c0 3c d6 bc 73 a1 86 bd 44 92 9f bd
       0.057340935 -0.026152015 -0.06573763 -0.0779157
0001d0 1f a1 1e bd f0 f6 08 bc 88 a4 71 3c c0 be 09 bb
       -0.038727876 -0.008359656 0.0147487 -0.0021018237
0001e0 d0 f5 3a 3c 5a 75 84 3d 60 37 49 bc 20 7c a1 3d
       0.011411145 0.064676955 -0.012281269 0.07885003
0001f0 19 74 02 bd a0 3e 29 3c 8c 68 71 bd e4 3a 4b 3d
       -0.031849 0.010329872 -0.058937594 0.04961671
000200 8c 6e c3 bc ac 3f 58 3d 08 1e 56 3c d0 41 0f bd
       -0.023856424 0.052795097 0.013068683 -0.034974873
000210 e8 84 99 bc 63 b9 17 bd 10 e4 da 3c 04 ad 56 3d
       -0.018740132 -0.037042033 0.026720077 0.052411094
000220 3e 70 9c 3d fc da 81 bc 92 8d cb bc e6 80 a3 3d
       0.07638596 -0.01585149 -0.02484778 0.0798357
000230 6a 23 a5 bd 78 02 27 bd dc 2a a3 3c 68 2c 2a 3c
       -0.08063395 -0.04077384 0.019917898 0.010386564
000240 bd 91 9d bd 48 70 87 bc 86 3f 47 bd 34 c8 80 3d
       -0.07693813 -0.016533032 -0.048644565 0.06288186
000250 d6 55 84 3d 68 ba 98 3c 80 54 50 3c 55 2b 2f bd
       0.064616844 0.018643573 0.012715459 -0.042765934
000260 08 93 fe 3c f8 67 ef bc f8 e2 1f bc ec 7e b5 bc
       0.03107597 -0.02922438 -0.009758703 -0.022155248
000270 0a 1e 2e 3d 10 e4 a7 3b 19 ed 91 bd b4 80 86 bc
       0.042509116 0.0051236227 -0.07125301 -0.016418792
000280 50 1f 44 3d 26 2a 09 3d 9a 83 88 3d 43 df 2d bd
       0.047881424 0.03348746 0.06665726 -0.042449247
000290 00 cb 5a bc ac 2e c5 3c 64 cb 61 3d f8 3a db 3c
       -0.013354063 0.024070106 0.05512561 0.026761517
0002a0 38 b9 7b 3d 64 cf a5 bc 60 bc 56 bc 5a cc 06 3d
       0.061455935 -0.020240493 -0.013106436 0.03290973
0002b0 e4 ef 42 3d b1 1f 4c bd 04 38 9b bd 6c 06 b8 bc
       0.04759206 -0.04983491 -0.075790435 -0.022464
0002c0 7c 37 6a 3d 24 cc 62 3d 60 6d 4a bd 18 7a 89 3d
       0.05718182 0.055370465 -0.049420714 0.06712741
0002d0 f8 70 ed 3c 48 8e 51 3c 88 b7 0f 3c ca 02 92 3d
       0.028984532 0.01279027 0.008771785 0.07129438
0002e0 92 0c 28 3d 58 6b 11 bc 50 2b ce 3b 85 aa 52 bd
       0.041027613 -0.00887569 0.0062917843 -0.05143215
0002f0 98 dd a3 bd c0 76 91 bb 60 58 a6 3b 8c c1 39 3d
       -0.0800125 -0.004439205 0.005076453 0.045350596
000300 64 81 f4 3c 18 1d 28 3c 00 a5 17 ba d8 f8 8a bc
       0.029846855 0.010260843 -0.000578478 -0.016964361
000310 e4 c1 c1 3c 58 43 39 bc f0 ab 8b 3d 8a 50 ec bc
       0.023652025 -0.01130756 0.06819904 -0.028846998
000320 a1 2a 1e bd cc 76 5e 3d c2 76 93 bd 56 7f ad bc
       -0.038614873 0.054312512 -0.07200386 -0.021178883
000330 84 dd 98 3c 2c a4 8e bd 38 61 ac 3c 54 36 bd 3c
       0.018660314 -0.06964907 0.021042451 0.023097195
000340 8f 3b 7a bd e4 c2 72 3d 8e d5 89 3d 67 26 8e bd
       -0.061091956 0.059267893 0.067301854 -0.069409184
000350 de de 93 3d c3 ce 19 bd 72 7e 8c bd 9c d7 df bc
       0.07220243 -0.0375507 -0.06860055 -0.02732449
000360 90 8a b9 3c f0 cc 62 bc fe 3f bd bc 9d 52 91 bd
       0.02264908 -0.013842806 -0.023101803 -0.07095835
000370 f8 27 0c bc 74 df b3 3c 78 b9 76 bc 82 61 8f bd
       -0.008554451 0.021957137 -0.015058868 -0.0700102
000380 b4 44 59 3d d0 88 10 3d 38 de d0 3c 1c 59 bb 3c
       0.053044036 0.035286725 0.025496587 0.02286964
000390 92 a5 76 bd d4 91 8d bc 1c c6 2b bd 76 ac 0b 3d
       -0.060216494 -0.01728145 -0.04193698 0.03410002
0003a0 de 3d 7c bd 70 de 5a bd 64 cb 75 3d 1a ea 85 3d
       -0.06158244 -0.05343479 0.06000842 0.06538792
0003b0 49 8c 17 bd 5a 5f 06 3d 60 12 a7 bb a4 6f f0 bc
       -0.03699902 0.032805778 -0.005098626 -0.02935011
0003c0 3b 1f 11 bd 80 c8 8b 3c cc e1 a1 3c 64 2f 9b bc
       -0.035430174 0.01706338 0.019760989 -0.018943496
0003d0 10 81 6a 3d 00 20 5d 3d 80 20 78 3b fc eb b6 3c
       0.05725199 0.053985596 0.0037861168 0.022329323
0003e0 5a e7 5d bd e2 28 99 bd 10 c8 59 bd 30 bf d1 3c
       -0.054175712 -0.07478501 -0.05316931 0.02560386
0003f0 56 c1 b4 bc 73 a4 60 bd 4e d8 4d bd f2 b9 91 3d
       -0.022064846 -0.05484433 -0.050255112 0.071155444

conv2.bias f4 [16]
000000 79 16 a7 bd ef b5 9e bd 25 a0 08 bd 55 38 10 bd
       -0.08158583 -0.07749545 -0.03335585 -0.035209972
000010 2b 98 4d bd 5e 9e 07 3d 5e 1c a1 bd f8 de 3c 3d
       -0.050193947 0.033110015 -0.07866739 0.046111077
000020 18 d5 a5 bd b6 e9 15 3d 28 93 95 3c 5a 67 25 bd
       -0.08097285 0.036599837 0.018258646 -0.040381767
000030 c8 25 ad 3c 38 a4 a1 3d 3a 75 81 bd 70 af ee bb
       0.02113618 0.0789265 -0.06321187 -0.0072840974

fc1.weight f4 [120, 400]
000000 f6 38 85 3c 70 84 f2 bc 80 c9 18 bb 40 85 13 bc
       0.016262513 -0.029604167 -0.0023313463 -0.009003937
000010 c8 6c 56 bc 38 03 3c bd 9d 61 35 bd 42 71 18 bd
       -0.013087459 -0.045901507 -0.044282544 -0.037217386
000020 ba 1b 84 bc d0 bd 98 bb b3 db d5 bc 39 7f 32 3d
       -0.016126502 -0.0046612993 -0.026105737 0.04357836
000030 68 be 98 3b e9 82 39 3d b0 b1 e3 bc 81 4b 21 3d
       0.00466137 0.04529086 -0.027794689 0.039378647
000040 c3 2d 09 3d 61 a1 1f 3d e6 07 a7 3c ce 2c 19 bd
       0.033490907 0.038972262 0.020389508 -0.037396245
000050 37 9d cd bc 60 a2 b5 3a e3 1c 2a 3d 00 ef 41 bb
       -0.02509938 0.0013857596 0.041531455 -0.0029591918
000060 17 25 e0 bc 21 13 03 3d 53 a4 09 3d b1 95 08 3d
       -0.027361436 0.032000665 0.033603977 0.03334588
000070 1e 21 0b bd 10 09 97 bb 98 e7 2e bc e8 46 0b bc
       -0.03396713 -0.0046092346 -0.010675333 -0.008500792
000080 70 fb 95 bb 3d ab 38 bd 87 1e bd bc a8 49 d0 bb
       -0.004577093 -0.04508518 -0.023085846 -0.0063564368
000090 74 5e 59 3c 7d 05 14 3d bc eb 00 bd 43 1a de bc
       0.013267148 0.036138047 -0.031474814 -0.027112132
0000a0 e8 b8 e3 bb 20 e5 af bc 43 bd fc bc 4e f1 e0 3c
       -0.006949533 -0.02147156 -0.030851966 0.027458813
0000b0 e2 7e a8 3c 63 13 d0 bc ba b8 a5 3c e1 d9 0f 3d
       0.020568315 -0.02539987 0.020229686 0.035119895
0000c0 ac eb 1f 3c 9e d7 21 bd 08 01 00 3c 8b 5f 4c bd
       0.009760778 -0.03951227 0.007812746 -0.049895804
0000d0 0a b7 ef 3c 06 43 92 3c d8 b7 3d bd 2a a2 40 bd
       0.029262085 0.017854225 -0.046317905 -0.04702965
0000e0 17 d0 3a 3d 36 59 88 3c 60 2a 13 3c 40 26 ec 3a
       0.045608606 0.016644102 0.008982271 0.001801677
0000f0 ed 5b 46 bd 0c f2 1e 3c f9 09 47 3d 2e 2f 88 3c
       -0.04842751 0.009701263 0.048593495 0.01662406
000100 e0 36 04 bb 00 1f b6 b9 36 1f 18 bd d3 6c d7 bc
       -0.002017431 -0.00034736842 -0.03713914 -0.026297009
000110 f8 b8 48 bd f6 c8 fa 3c 90 4b a1 3b 0f 69 21 3d
       -0.049004525 0.030613404 0.004922338 0.039406832
000120 33 bf 26 bd 8a 72 c3 3c b8 52 2c bd 3a 80 16 bd
       -0.040709686 0.023858327 -0.042071074 -0.03674338
000130 73 8f ee bc 84 d4 08 bd 76 d0 d6 3c da 65 9c bc
       -0.029121136 -0.033405796 0.026222449 -0.019091535
000140 68 ca ef 3b 78 84 63 bc ca 01 e9 bc 58 6a d0 bb
       0.00731783 -0.0138865635 -0.028443236 -0.0063603334
000150 23 72 45 3d 00 6b 8a 3b 44 5f 77 3c e7 22 9c bc
       0.048204552 0.004224181 0.015098397 -0.019059611
000160 b2 fa 3d bd ca 0a 94 bc 54 93 09 bc 7e 27 b8 3c
       -0.04638166 -0.01807155 -0.008396942 0.022479769
000170 98 96 27 bd a4 79 60 3c 00 31 dc 3a b0 b6 e4 bc
       -0.0409151 0.013700876 0.0016799271 -0.027919143
000180 c8 47 0e bc 2a 09 a6 3c 17 3d 34 bd 00 c9 86 39
       -0.008684106 0.020268042 -0.044003572 0.00025708228
000190 73 3c 32 bd 0b 99 0f 3d de 3f e9 3c 37 50 08 3d
       -0.04351468 0.035058063 0.028472837 0.033279624
0001a0 59 a3 43 3d a3 66 41 3d a0 f5 f3 bc 09 f8 3e 3d
       0.047763202 0.047217023 -0.029780209 0.046623264
0001b0 d2 55 2e bd 34 5e 3d bc e3 72 41 bd 94 95 71 3c
       -0.042562313 -0.011558104 -0.047228705 0.014745135
0001c0 c0 ff 1a bd 00 00 38 b6 f2 ac d7 3c e2 5e eb 3c
       -0.03784156 -2.7418137e-06 0.026327584 0.028731767
0001d0 a5 62 3e bd 88 f7 12 bc 40 5d 3f bc 19 21 0f 3d
       -0.046480794 -0.008970149 -0.011679947 0.034943674
0001e0 80 07 37 bd ef 0d 0a 3d ca 61 3c bd 4a b9 f2 3c
       -0.044684887 0.033704694 -0.045991696 0.029629368
0001f0 ed fc 08 3d 3a cb cf 3c 32 0b aa 3c c1 b0 1e 3d
       0.033444334 0.02536546 0.020757291 0.038742784
000200 84 45 7b 3c ae 12 e7 3c d0 c5 66 bb e0 ba 18 bd
       0.015336398 0.02820715 -0.003521312 -0.037287593
000210 ac b1 38 bc 88 76 04 3c 2c c8 5f 3c a0 73 15 bc
       -0.011272829 0.008084901 0.013658565 -0.009121805
000220 30 1f 3d bd 98 9c fa 3b 78 2f 15 3c 90 43 ca bc
       -0.04617232 0.007648062 0.009105556 -0.02469042
000230 c7 51 3f bd 41 b9 49 3d 94 62 06 bd d8 f3 8e 3b
       -0.04670885 0.049248938 -0.032808855 0.0043625645
000240 9a 8b 97 3c d5 c4 0e 3d 12 6a 9f 3c 50 ce 3d bb
       0.018499184 0.034855682 0.019459758 -0.0028962083
000250 a0 56 c5 ba 77 08 a1 bc 16 d2 95 3c 39 78 26 3d
       -0.0015055723 -0.019657357 0.018288653 0.040641997
000260 10 59 bc bc 90 57 98 3b 80 27 da bc 18 1a 0d bc
       -0.022991687 0.00464911 -0.026630163 -0.008612178
000270 c1 4d 3e 3d f8 f0 09 bc 19 84 1c 3d 68 93 37 bc
       0.04646087 -0.008419268 0.038211916 -0.011204578
000280 03 32 a9 bc 08 d2 17 bc 00 d3 e5 ba 3a 5a 8e 3c
       -0.02065373 -0.009266384 -0.0017534196 0.017377008
000290 5d d4 d0 bc 1d 04 05 bd d8 11 ae bb 5c 42 70 3c
       -0.025491888 -0.032474626 -0.0053121857 0.014664259
0002a0 21 0d 29 3d a0 34 31 bc 8c c8 03 bd 28 b9 c1 bb
       0.041272286 -0.010815769 -0.03217368 -0.005911965
0002b0 cd 36 0d bd f4 ea 23 bc fa 51 de bc ba f2 c4 bc
       -0.03447609 -0.010004748 -0.027138699 -0.024041522
0002c0 78 f3 3e bd e3 45 2d bd 80 5e 3c 3a 8e a5 1a bd
       -0.04661891 -0.042302977 0.00071857125 -0.03775554
0002d0 ac d7 0d bc bd 47 49 3d 68 94 ef 3b 36 83 e4 3c
       -0.008657377 0.04914068 0.0073113926 0.027894598
0002e0 61 18 26 3d 80 2b 1f ba 95 91 2b 3d a2 81 35 bd
       0.040550593 -0.00060718507 0.041886885 -0.04431308
0002f0 8d 46 4c 3d 45 a4 06 bd 29 79 1b 3d eb f1 46 3d
       0.04987197 -0.032871503 0.037957344 0.048570555
000300 fb 53 1d bd 10 91 c7 bc 60 e7 21 3b 97 02 cb bc
       -0.03841017 -0.024361163 0.002470456 -0.024781508
000310 a0 74 3f bb 81 a5 01 3d f3 c4 f3 bc 89 94 02 3d
       -0.00292138 0.031651977 -0.029756999 0.031879935
000320 0d e8 14 3d 9b 78 37 3d bd a5 10 3d 38 d1 49 3c
       0.036354113 0.044792753 0.03531431 0.012317948
000330 06 f8 90 bc c3 fc da bc cd e1 0e 3d f8 52 24 bc
       -0.017696392 -0.026731854 0.03488331 -0.010029547
000340 68 14 ba bb ba 76 23 bd 79 4f 13 3d 72 14 8c 3c
       -0.005678702 -0.03990815 0.035964463 0.017099593
000350 38 e0 08 bd 2a d3 a9 3c 00 4f ab 39 ab 71 18 bd
       -0.033416957 0.020730574 0.0003267452 -0.037217777
000360 1f 98 22 3d 55 5e 07 bd a2 78 2a bd 74 4f 3c 3c
       0.039695855 -0.033048946 -0.04161895 0.0114935525
000370 0f 0a 11 3d e7 fc b9 bc e0 34 3c 3c b0 96 8c 3b
       0.035409983 -0.022703601 0.011487216 0.0042904243
000380 00 b1 02 bb 5b 45 1c 3d f9 b3 38 3d 63 64 1c 3d
       -0.0019941926 0.03815208 0.04509351 0.038181674
000390 7d 31 16 3d d8 06 f8 bb 00 1c 18 3c de 7c 95 3c
       0.03666829 -0.007569175 0.0092840195 0.018248018
0003a0 e9 c0 41 3d e8 b7 2a bd b4 c8 5b 3c f3 d7 11 3d
       0.047303114 -0.041679293 0.013414551 0.035606336
0003b0 97 0f dd bc 87 c1 bb bc 87 f6 45 3d 6a 3b b6 3c
       -0.026984973 -0.02291943 0.04833081 0.022245128
0003c0 90 8a d5 bc 30 70 1f bd ec 6d 19 3c fb d6 0e 3d
       -0.026067048 -0.03892535 0.009364586 0.03487299
0003d0 cc 85 38 bc 48 39 0c 3c 40 b4 e7 3b 62 ed 2a bd
       -0.011262368 0.008558579 0.007071048 -0.041730292
0003e0 20 8a 10 bc 0d ac b2 bc 7d 52 09 3d 44 42 88 bc
       -0.008821994 -0.021810556 0.033525933 -0.01663316
0003f0 d9 a6 23 3d cc 2e 7d 3c b5 38 04 bd a0 ae 9e ba
       0.03995404 0.015453052 -0.032280643 -0.0012106486

fc1.bias f4 [120]
000000 31 54 38 3d 28 34 12 bd 4e 11 f8 3c 4a 56 42 bd
       0.045002166 -0.03569427 0.030281689 -0.047445573
000010 27 f0 a0 bc 75 73 41 3d 1a 29 03 bd 58 6b 64 bc
       -0.019645764 0.04722925 -0.03202162 -0.013941608
000020 e2 1b 4b bd c4 46 55 3c c1 f5 1e 3d 4c 38 58 bc
       -0.049587138 0.01301736 0.038808588 -0.013197016
000030 b5 11 1b bd 40 94 28 3c 15 e0 10 3d 53 cb 37 3d
       -0.037858684 0.010289252 0.03536995 0.04487164
000040 2d 6e 43 3d 4d 7b 37 bd 6f 36 17 3d 16 f7 e0 3c
       0.047712494 -0.044795323 0.036917146 0.02746157
000050 18 9a f7 3b a0 7f 44 3c b0 7d f3 3b da 51 cc 3c
       0.007556211 0.011993319 0.0074307546 0.024941374
000060 7d 50 28 bd b8 bb 09 bc a6 8a f8 3c 82 40 cf 3c
       -0.041092385 -0.008406572 0.03033955 0.025299314
000070 00 b8 90 ba c2 25 b3 3c ea c9 0e bd e0 20 12 bd
       -0.0011041164 0.02186859 -0.03486053 -0.035675883
000080 4f a8 31 3d c2 58 02 bd 50 f8 af 3b 5d 0f c2 bc
       0.043373402 -0.031822927 0.0053701773 -0.023688966
000090 42 0e 9b 3c bd e0 2b bd 6c 45 23 3c ca 48 e2 3c
       0.018927697 -0.041962374 0.009965282 0.0276226
0000a0 41 30 3b 3d d4 11 17 bc bc 62 84 bc 10 75 e9 3b
       0.045700315 -0.009220559 -0.016160361 0.0071245506
0000b0 68 19 18 3c 70 2c 37 bd 00 5e b9 3a b8 ce 3d bc
       0.009283401 -0.044720113 0.0014142394 -0.01158493
0000c0 ce d4 fa 3c fb 7b 0f bd c0 b6 58 bc 2a b5 ea 3c
       0.030619051 -0.035030346 -0.013227165 0.028650839
0000d0 50 36 a0 3b 10 6a b6 bc d8 4f 13 bc 77 64 2b 3d
       0.004889287 -0.022267371 -0.008991204 0.041843858
0000e0 b4 1f 02 bd a2 17 07 bd f0 53 e7 3b c0 43 d1 bb
       -0.031768516 -0.032981522 0.0070595667 -0.0063862503
0000f0 5f 06 06 3d b0 32 da bb f2 76 eb 3c ae c5 c0 3c
       0.03272092 -0.0066588745 0.028743241 0.023531761
000100 34 b9 17 3c 9a ec b5 3c f9 58 01 3d 00 8c f5 3a
       0.009260464 0.022207547 0.03157899 0.001873374
000110 f5 99 49 3d fa 45 e1 3c 10 09 93 bc 87 e2 0e 3d
       0.04921909 0.027499188 -0.017948657 0.034884002
000120 7d a7 a1 bc 08 48 6d bc a0 69 23 bc 40 08 98 ba
       -0.019733185 -0.014482506 -0.009973913 -0.0011599138
000130 36 3b 89 bc 13 00 15 bd d6 1d d4 3c cf 58 44 3d
       -0.016751867 -0.036377024 0.025893133 0.047936257
000140 0e 9f 99 3c 72 97 82 3c 40 15 9d bc 11 44 00 3d
       0.018752601 0.015941355 -0.019175172 0.031314913
000150 93 3f ae bc 88 c2 3c bd 0c 6e 63 bc 12 ee e5 3c
       -0.021270549 -0.046083957 -0.013881218 0.028067622
000160 30 49 7c bb e9 35 06 3d 38 4e 70 bc 17 3b e3 bc
       -0.0038495772 0.032766256 -0.014667086 -0.027738137
000170 a0 04 b6 bc ac ac 16 3c d8 87 57 bc 1c 5c 79 3c
       -0.022219002 0.009196442 -0.013154946 0.0152197145
000180 2f 56 1f 3d bb 83 20 3d 46 42 22 bd 2a 2e 8a bc
       0.03890055 0.039188128 -0.039613985 -0.016867716
000190 60 38 28 bc f0 91 bf bb 70 41 d1 bc a5 d6 40 3d
       -0.010267347 -0.0058462545 -0.025543898 0.0470797
0001a0 cd 51 43 bd 57 6a c5 bc 02 33 f8 3c d5 5a 2b 3d
       -0.047685433 -0.024098558 0.03029776 0.04183467
0001b0 62 a5 f9 3c 82 6f 95 3c 31 41 25 3d a0 2f ae 3a
       0.030474368 0.018241648 0.040345374 0.001328934
0001c0 a0 73 a5 ba 30 ab d1 bc c2 ca b4 3c 0d 15 06 3d
       -0.001262296 -0.025594324 0.022069339 0.03273492
0001d0 70 71 0b bd 07 63 19 3d ad 3c b9 bc 88 94 19 bc
       -0.03404373 0.037447955 -0.02261194 -0.0093737915

fc2.weight f4 [84, 120]
000000 ec b1 88 3d 40 c0 48 3c f0 76 9f 3b a8 1e 82 bc
       0.06674561 0.012252867 0.0048664734 -0.015883759
000010 2d 4b 5e bd 4c cd f4 3c 34 ad ac bc 48 9a a6 bd
       -0.054270912 0.02988305 -0.021078683 -0.081348956
000020 9a bf a8 3d 9f 14 9c bd 98 60 8d bc c0 86 24 bb
       0.0823967 -0.07621121 -0.017257974 -0.0025104731
000030 3e e6 7b bd 10 ea fb bb 38 8a 2a 3d 34 2d 83 3d
       -0.061498873 -0.0076878145 0.041635722 0.06405106
000040 60 ed 98 bd 15 8c 00 bd 18 91 f1 3c 80 89 93 3d
       -0.07467151 -0.031383593 0.029488131 0.072039604
000050 c8 d7 54 3d 68 a4 46 3d 88 ad 22 3d f8 3b 9e 3c
       0.051963598 0.048496634 0.039716274 0.019315705
000060 66 bd 95 3d 44 5d 5d 3d 10 29 fb bb 08 e5 c5 3c
       0.073115155 0.054044023 -0.007664807 0.024157062
000070 e8 99 86 3c 90 7a 87 bc 8a 6e 92 3d 74 07 8c 3d
       0.01643081 -0.016537935 0.0714999 0.06837359
000080 38 32 62 bc 47 9f ae bd 56 a1 8b 3d 0e c0 02 bd
       -0.013805918 -0.085264735 0.06817882 -0.03192144
000090 2e 35 81 3d b4 99 94 3d ba 2a 92 bd 84 93 79 bd
       0.06308971 0.07255879 -0.07137056 -0.060931697
0000a0 f0 04 d1 bb e8 30 7d bc da bf 03 3d 18 22 c4 bc
       -0.0063787624 -0.015453555 0.032165386 -0.023942038
0000b0 64 52 1e 3d 6c 44 b8 3d f8 4c 5b 3d 88 8e b4 3c
       0.038652793 0.089974254 0.0535402 0.02204062
0000c0 10 c0 98 bc 58 ad ba 3c 00 56 ad ba 9d af 49 bd
       -0.01864627 0.022787735 -0.0013224483 -0.049239744
0000d0 01 3c 19 bd 5d 88 6a bd d0 d3 89 bd b0 4e 79 3c
       -0.03741074 -0.057258952 -0.06729853 0.0152165145
0000e0 0c dc 5b 3d b8 2d c8 bc d2 32 9c 3d ad da 22 bd
       0.05367665 -0.024435863 0.07626881 -0.039759327
0000f0 0a ce 19 bd 57 16 4c bd e1 75 20 bd 06 8b 01 3d
       -0.03755001 -0.049825992 -0.039174918 0.031626724
000100 b4 b6 0d 3d 33 75 48 bd 6c c5 0c 3d 00 fe 5c ba
       0.034598067 -0.048939895 0.034367964 -0.0008430183
000110 9c 57 e9 bc 29 6f 39 bd 04 c5 a4 bd 0f 1d a6 bd
       -0.028484158 -0.045272026 -0.0804539 -0.08111011
000120 10 75 fc 3c 04 ee a1 3c 4f 7d 16 bd a0 7c 45 bb
       0.030817538 0.019766815 -0.036740597 -0.0030134097
000130 f8 35 b2 3d f2 c2 4a bd e4 20 77 3d 22 e5 35 bd
       0.087017 -0.04950232 0.0603341 -0.04440797
000140 44 fd 90 bc d6 3b 9f bd 06 df b6 3d 62 74 97 bd
       -0.017698891 -0.07775085 0.08929257 -0.07395245
000150 c8 26 13 bd 50 df 8e 3d d8 99 b0 3c 44 cf 97 bd
       -0.035925657 0.06976187 0.021557733 -0.0741258
000160 04 5f f7 bc 4c bf b5 3d 30 b8 82 bd 48 f5 9f 3d
       -0.030196674 0.088743776 -0.06382787 0.078104556
000170 98 15 91 3d 29 39 66 bd 44 81 af 3d 20 56 6f bb
       0.07084197 -0.056206856 0.08569577 -0.003651984
000180 20 fa 6b bb 74 74 87 bd 40 44 a9 3c 18 70 60 3c
       -0.003600724 -0.066140085 0.020662427 0.0136986
000190 8e f5 88 3d 69 ad 34 bd fb 6d 93 bd 43 85 44 bd
       0.06687461 -0.04411069 -0.071987115 -0.04797865
0001a0 f8 32 12 bc 70 7a 81 3c 00 4f 56 3a 88 11 86 3d
       -0.008923285 0.015805453 0.0008175224 0.065463126
0001b0 70 4a f7 bb c0 a5 4b 3d b8 4f 89 bd 70 06 5e bc
       -0.0075467154 0.04971862 -0.06704658 -0.0135513395
0001c0 5a 8a b1 3d b0 62 3e 3d f4 44 b9 3d a8 8e 9a bd
       0.086689666 0.046480834 0.09046355 -0.07546741
0001d0 d8 c4 a8 bd 20 35 56 bc 68 50 72 3c ad 54 08 bd
       -0.0824067 -0.013074189 0.014789678 -0.033283878
0001e0 84 71 ed 3c 14 e8 91 3d 2a b2 93 3d 44 cd 73 3d
       0.028984793 0.071243435 0.072117165 0.05952193
0001f0 b3 dd 1a bd a0 ad b2 3d 02 63 40 bd 34 28 96 bc
       -0.037809085 0.087245226 -0.04696942 -0.018329717
000200 d0 5e 36 3c 34 05 6a 3d 76 72 a2 bd 94 8a b5 3c
       0.0111310035 0.05713387 -0.07931988 0.022160806
000210 b2 65 a4 bd 78 1a e0 3c b8 62 7c bc 43 a5 9e bd
       -0.08027209 0.027356371 -0.015404396 -0.07746365
000220 1e b9 ae 3d e8 75 28 3d 21 f3 a7 bd c6 e9 61 bd
       0.08531402 0.04112807 -0.0820067 -0.055154584
000230 70 0c 65 3d 21 ae 33 bd eb 8c 47 bd 8e be 04 bd
       0.055920064 -0.043867234 -0.048718374 -0.03240829
000240 a4 dd 55 3d 60 2a 52 bd 28 c4 83 bd 30 36 4e 3c
       0.052213326 -0.051309943 -0.06433898 0.0125861615
000250 74 68 64 3d 98 d7 b5 3d 58 e7 42 3c e8 09 97 bd
       0.055763677 0.08879012 0.011895977 -0.07374936
000260 64 41 b3 3d 9b 82 b4 bd 84 d3 e5 bc 4f 82 59 bd
       0.08752707 -0.088139735 -0.02805496 -0.053102788
000270 2e 0c b8 3d b6 73 ae 3d 3c 52 bb bc a0 85 93 bd
       0.08986698 0.08518164 -0.02286636 -0.07203221
000280 b4 e2 c5 bc 50 7a e4 3b 0d d9 6a bd 40 5f 25 bb
       -0.024155952 0.0069725886 -0.057335902 -0.0025233775
000290 48 e6 7d bd e0 c9 fd bb f8 60 55 3d 10 b6 e2 3b
       -0.06198719 -0.0077450126 0.05209443 0.006918676
0002a0 78 c0 d3 bc 3f 07 06 bd 74 73 3d 3d 10 e7 ba 3b
       -0.025848612 -0.032721754 0.046252683 0.0057038143
0002b0 08 00 6c 3d f4 96 98 3c 30 e0 28 3c b0 ac 8c 3c
       0.057617217 0.018626668 0.010307357 0.017172188
0002c0 20 11 b8 3c 10 21 98 3d d8 b6 29 3c 7f 61 69 bd
       0.022469103 0.07428181 0.010358535 -0.056977745
0002d0 40 9a a9 3d 48 55 92 3c 2e 0c b2 bd 4d 46 b3 bd
       0.08281374 0.01786293 -0.08693729 -0.08753643
0002e0 a0 8d 5a 3b ce 0c 90 bd 43 84 21 bd 86 1a 9f 3d
       0.0033348575 -0.07033692 -0.039432775 0.07768731
0002f0 65 35 8c bd 60 ba 6a 3d 80 30 2d 3b 18 6a ac 3d
       -0.06846122 0.057306647 0.0026426613 0.08418673
000300 98 26 3b 3d c6 33 07 bd 00 cc b6 38 58 5f 9a bd
       0.045691103 -0.03300836 8.716434e-05 -0.075377166
000310 80 1c f5 3a 8f 3d b8 bd 6c fe 16 3d 94 07 c3 3c
       0.001870051 -0.08996116 0.03686373 0.023807324
000320 4a ac a6 3d 53 ce 55 bd 3e fd a4 bd 1a 55 f9 bc
       0.0813833 -0.05219872 -0.080561146 -0.030436087
000330 f8 09 b7 3d c8 f5 92 bc 22 6c 85 bd f8 e3 ae 3d
       0.08937448 -0.017939463 -0.06514765 0.08539575
000340 c0 07 57 bc f8 97 3f 3d ef 0c ae bd 7b 0f 98 bd
       -0.013124406 0.046775788 -0.08498561 -0.07424828
000350 98 2a a2 3d 90 d1 23 3d 78 2a f9 bc 2f 9a 25 bd
       0.0791828 0.039994776 -0.030415758 -0.040430244
000360 4f 02 b8 bd d0 ed e5 bb 20 9e 80 bd 94 38 a4 3d
       -0.08984815 -0.007016875 -0.0628016 0.08018604
000370 79 e7 9f bd 1c ad 57 3d 9b 0b 8d bd 98 68 18 bd
       -0.07807822 0.052655324 -0.06886979 -0.037209123
000380 06 75 96 bd 24 6e 76 3d aa 49 a4 3d cd 96 a0 bd
       -0.07346539 0.060163632 0.08021863 -0.07841263
000390 21 66 9d bd 94 84 68 3d 39 f8 46 bd 68 d6 51 bc
       -0.07685495 0.05676706 -0.048576567 -0.012807466
0003a0 5c 6f 03 bd 58 3c 71 3d 66 4b 28 bd a4 78 a5 3c
       -0.032088622 0.05889544 -0.04108753 0.020199127
0003b0 57 6c 63 bd 68 73 77 3d 55 0e 4d bd c8 1e c2 3c
       -0.055523243 0.060412794 -0.050062496 0.023696318
0003c0 26 fe 85 3d 10 43 14 3c e9 62 77 bd 7b cc 0c bd
       0.065426156 0.009049192 -0.060397062 -0.034374695
0003d0 70 f2 88 bb 00 48 65 b9 d4 89 37 3d a0 e7 0a 3d
       -0.0041792914 -0.00021865964 0.044809178 0.0339123
0003e0 64 1e 9a bc 86 1f 98 3d 88 b3 23 bd 18 51 39 bc
       -0.01881332 0.074278876 -0.039966136 -0.011310838
0003f0 2e 37 3d bd 58 49 1c 3d c2 94 a9 bd 92 1c 53 bd
       -0.0461952 0.038155884 -0.082803264 -0.05154092

fc2.bias f4 [84]
000000 08 d6 f0 3c 80 5e 7a 3d cc 9f a4 bc 82 a7 ba 3d
       0.029398933 0.06112528 -0.020095728 0.09113981
000010 3b 59 30 bd 8c 79 80 bd 2a 4a 08 3d 88 ac 48 bc
       -0.043053847 -0.06273183 0.033273853 -0.012248166
000020 e8 86 56 3d 42 d5 86 bd f0 da 34 3d 3a 11 05 3d
       0.05237475 -0.065836444 0.044154108 0.03248713
000030 80 26 3e 3d 89 8f 02 bd ec bf 98 3c 1c a3 ce bc
       0.046423435 -0.031875167 0.018646203 -0.025224261
000040 04 83 9f bd a8 67 37 bd 65 00 a6 bd ec 59 ef 3c
       -0.07788661 -0.04477659 -0.08105544 0.029217683
000050 34 9a 18 3d c4 59 cb bc 5b 02 b3 bd 78 8e 57 3d
       0.037256435 -0.024823077 -0.08740684 0.052626103
000060 68 13 b5 3d e0 e1 fa 3b 90 72 cd 3c 35 61 95 bd
       0.08841592 0.007656321 0.025079042 -0.072939314
000070 38 86 69 3d b9 bb 43 bd 6a f5 91 bd 1a 6d 86 3d
       0.057012767 -0.04778645 -0.07126887 0.06563778
000080 48 35 65 3c fc fb b1 3c 9e d9 54 bd 10 2a 86 bd
       0.013989754 0.0217266 -0.05196535 -0.065509915
000090 e2 3a a0 3d 1c 08 e4 3c c6 9e 90 bd 24 6d 75 bd
       0.07823731 0.027835898 -0.07061534 -0.059918538
0000a0 51 64 b0 bd 3b a5 93 bd c0 4a 8f ba 90 e2 d3 bc
       -0.08612884 -0.072092496 -0.0010932311 -0.02586487
0000b0 52 84 03 3d 21 15 9c bd 82 24 81 3d a9 24 90 bd
       0.032108612 -0.076212175 0.063057914 -0.07038242
0000c0 b8 63 3b 3d 64 5c b8 bc 67 72 10 bd 3a 81 5d bd
       0.045749396 -0.022504993 -0.035265353 -0.05407832
0000d0 68 70 cb 3c 7a bc 38 bd fa 3b 8c bd 10 09 f3 3b
       0.024833873 -0.04510162 -0.06847377 0.007416852
0000e0 88 6d 65 3c 2c 12 de bc 52 99 b2 bd 48 2d ce bc
       0.014003165 -0.027108274 -0.0872065 -0.025168076
0000f0 bc 8b 8a 3c 3a 72 92 3d e8 0d 74 3d 74 e4 87 3c
       0.016912334 0.07150693 0.059583575 0.016588427
000100 c1 2e a5 bd 09 60 4d bd 2c 4e 5a 3d b0 6b b0 bc
       -0.08065558 -0.050140414 0.053297207 -0.021535724
000110 4a 65 09 3d 38 92 d7 bc 1c 43 13 3d 4e 0c b0 bd
       0.033543862 -0.02631484 0.035952672 -0.08596097
000120 c0 28 37 bb f0 5b e9 bb 9a 61 93 bd 64 af 6f 3d
       -0.0027947873 -0.0071215555 -0.071963504 0.058516875
000130 a4 32 9a 3d 06 7e 86 bd e0 c8 2e 3b b5 7e af bd
       0.0752919 -0.06567006 0.0026670024 -0.08569089
000140 6c 0d 4d 3d 46 86 b5 3d 58 d8 9a 3d 46 e3 b8 bd
       0.05006163 0.08863501 0.075607955 -0.09027724

fc3.weight f4 [10, 84]
000000 26 b5 92 bd 10 a1 a9 3b bb cb d4 bd dc fe dd bd
       -0.071634576 0.005176671 -0.10390421 -0.10839626
000010 47 f1 4e bd 4e a4 a3 bd f1 fe 9e 3d 84 d9 c8 bd
       -0.05052307 -0.07990323 0.0776347 -0.09807113
000020 b6 dc 22 bd aa c1 27 bd 18 d4 2d 3c 69 13 bf 3d
       -0.039761268 -0.040956177 0.010609649 0.09329874
000030 f0 fc 02 bc 71 f3 b3 3d 83 bd b9 3d 45 d2 89 3d
       -0.007994875 0.08786667 0.090693496 0.06729559
000040 64 37 e0 3c ac 75 d4 3c 91 8c 89 3d 6b 98 ce 3d
       0.027370162 0.025935017 0.06716264 0.10087665
000050 26 eb 7c 3d 7f 94 b0 3d bb b5 82 3d b6 d5 10 3d
       0.061747693 0.086220734 0.063823186 0.03536006
000060 2c 26 a7 bd 09 c0 c1 3d ef 54 58 bd 94 24 b2 bd
       -0.081615776 0.09460456 -0.052815374 -0.08698383
000070 44 ea 71 bd c7 42 85 3d e6 9a 22 3d 31 40 bb bd
       -0.059061304 0.065068774 0.039698504 -0.09143103
000080 a8 ae 70 bc 00 c5 49 ba 9d 55 4c bd d1 1c 95 3d
       -0.014690079 -0.0007696897 -0.049886335 0.07280887
000090 5f 24 89 3d 34 02 dd bc 68 d2 00 3c 7b 38 62 bd
       0.0669639 -0.02697859 0.007862665 -0.055229645
0000a0 7e 23 3c 3d ad cb 91 3d 97 55 9c 3d b6 fd 49 3d
       0.045932285 0.07118926 0.076335125 0.049314223
0000b0 d2 a9 03 3d c5 34 9a bd ee e7 75 3d 62 ec 86 bd
       0.032144375 -0.07529596 0.06003564 -0.06588055
0000c0 d6 b5 19 3d 7c 89 d2 3c 60 67 80 bb e2 f6 54 3d
       0.037526928 0.025700323 -0.0039185733 0.05199326
0000d0 ae 6f 48 3d fc a4 cd 3c d5 32 c9 3d 5d d2 b5 3d
       0.04893463 0.025103085 0.098241486 0.08878014
0000e0 5e d3 77 3d 18 58 46 3c 02 08 4a 3d 28 9f a8 bc
       0.06050431 0.012105964 0.049324043 -0.020583704
0000f0 9a 61 05 3d bb 5c 81 3d 35 4b 95 bd e6 09 00 3d
       0.032563783 0.06316515 -0.07289735 0.03125944
000100 80 57 05 3a 50 4e 1b bc 09 b2 b3 3d c1 db 5b bd
       0.0005086586 -0.00947912 0.08774192 -0.05367637
000110 10 d6 1b bd 49 f5 a3 3d e3 ba 79 bd 22 6e 94 bd
       -0.038045943 0.08005769 -0.060969245 -0.07247569
000120 53 1b c0 3d e4 70 5d bd 7d 61 c5 3d e0 4d e1 bc
       0.09380212 -0.05406274 0.09637735 -0.027502954
000130 f8 23 97 bd 0d ac cd 3d 26 c5 3d 3d c0 83 0b bb
       -0.07379907 0.10042582 0.046330594 -0.0021288246
000140 cb 48 b5 3d ad 2b c6 3d c5 ca d6 bd 1c f7 e3 3c
       0.08851775 0.09676299 -0.10487894 0.027827792
000150 00 e5 c3 bd a0 dc 28 bd dc bf d4 3c 0e 84 ba bd
       -0.09565163 -0.04122603 0.025970392 -0.09107219
000160 a6 86 42 3d 2a ba 1a 3d 8c f0 8a 3c a8 de b0 bc
       0.047491692 0.037775196 0.016960405 -0.021590546
000170 f8 69 58 3c 9a 85 44 3d 90 cb c4 bd f2 04 dd bd
       0.013208859 0.047978975 -0.09609139 -0.10791959
000180 5a cd 3e bd 96 92 08 3d dc f3 83 bd f0 b3 65 bc
       -0.046582557 0.03334292 -0.06442997 -0.014019951
000190 ac ff 98 bd 54 02 a0 3c e0 d8 28 bb 59 7b d0 3d
       -0.074706405 0.01953236 -0.0025764033 0.10179777
0001a0 e6 dc 13 3d 9d 8e aa 3d 00 a4 9d 38 90 ff bb bd
       0.036099337 0.083279826 7.516891e-05 -0.09179604
0001b0 ec a8 cd 3c 26 9a 58 3d 90 3d 90 bd 3b 49 cf 3d
       0.025104962 0.052881382 -0.07042992 0.101213895
0001c0 58 45 2c 3c 09 b6 bb 3d 80 57 ac 3b 70 a3 34 bc
       0.01051458 0.0916558 0.0052594543 -0.011025295
0001d0 3c c1 14 bd 3a 53 0e bd aa df 14 3d 60 89 c2 3b
       -0.036317095 -0.03474734 0.036346115 0.0059367865
0001e0 ce c0 25 3d d9 00 a5 bd f0 b5 a4 bd 4d 72 8e 3d
       0.040467076 -0.08056802 -0.08042514 0.06955395
0001f0 3e 92 59 3d 56 2b 3a 3d c7 f8 aa 3d 00 af d5 39
       0.053117983 0.045451485 0.08348232 0.0004075691
000200 be f6 2f 3d 1c 89 26 bd 14 d2 89 3c 6f 42 b0 bd
       0.04295992 -0.0406581 0.016823806 -0.08606421
000210 64 d8 96 bd 54 06 f0 3c a0 d6 9e 3b 7e 3c 3e 3d
       -0.07365492 0.029299892 0.0048473626 0.04644441
000220 89 36 a9 bd da 16 bd bd 6c 22 9c 3c b9 da 83 3d
       -0.08262355 -0.09232874 0.019059382 0.064382024
000230 13 51 90 bd 5c ce d0 3c 3b 94 b5 3d 99 50 dc 3d
       -0.07046714 0.025489025 0.08866163 0.1075756
000240 2b c1 9a 3d 24 3a 83 3c 12 7c 60 3d bc d8 92 3c
       0.07556375 0.016018935 0.054805823 0.017925613
000250 2c b9 cf 3c 18 54 26 bc c4 64 db 3c 7a 17 91 bd
       0.025356852 -0.010151885 0.026781447 -0.07084556
000260 38 cb 45 bc 88 3f 2d bd 21 fd 86 3d b0 60 73 3c
       -0.012072377 -0.042296916 0.06591249 0.014854595
000270 e3 9f a3 3d 92 54 54 3d a0 42 a2 3b e0 a8 18 bb
       0.0798948 0.051838465 0.00495179 -0.0023294017
000280 80 f5 8c bb f7 19 b6 bd 6a 17 86 bd 48 71 93 bd
       -0.004301727 -0.08891671 -0.06547435 -0.07199341
000290 6b 34 b3 bd ef a8 da 3d 46 db 08 3d c0 99 c1 bd
       -0.08750232 0.10676753 0.03341224 -0.094531536
0002a0 94 cb a1 3c e2 fb 17 3d 9f 54 c2 bd 29 3b b9 3d
       0.019750394 0.03710545 -0.094887964 0.09044487
0002b0 2c ac c9 bd 7f e6 c4 3d a0 c1 ce bc 78 8c c0 bd
       -0.09847292 0.09614276 -0.025238812 -0.09401792
0002c0 31 c9 a9 bd 9c ba 29 bd 9e e8 44 3d 30 a4 19 bc
       -0.08290327 -0.04143773 0.048073404 -0.009377524
0002d0 8a 19 2e 3d d7 42 9a 3d 68 be 25 bc 00 58 7f b9
       0.042504825 0.0753228 -0.010116197 -0.00024351478
0002e0 8a ce 8e bd 6f a4 d4 3d e0 a9 b8 3b 45 8d 95 3d
       -0.06972988 0.10382926 0.005635485 0.07302336
0002f0 d7 56 82 bd 32 cf 0b bd 36 9d 95 bd 43 4b 96 3d
       -0.0636422 -0.034133144 -0.07305376 0.07338574
000300 1e 29 33 bd 59 c2 d1 3d e9 a5 5f bd 11 a6 73 bd
       -0.043740384 0.10242147 -0.054601584 -0.059484545
000310 f3 de bc 3d bd 4e 54 bd 24 13 f5 bc 01 52 b6 3d
       0.09222212 -0.051832903 -0.029916354 0.0890236
000320 77 41 dc 3d 5b 3f d3 3d b4 52 19 bd a0 b2 6f bd
       0.10754674 0.103148185 -0.037432387 -0.05851996
000330 b2 99 9f bd 70 90 e3 bc 0c bc ab bd 33 97 b6 bd
       -0.07792987 -0.027778834 -0.083854765 -0.08915558
000340 6d 32 c4 3d 05 a4 ca 3d a0 d6 bd bd 00 72 a6 bb
       0.095799305 0.098945655 -0.09269452 -0.005079508
000350 a3 fd cb bd 20 8f 9f bb da 8f 79 3d dc b8 c1 bd
       -0.09960487 -0.0048693568 0.060928203 -0.09459087
000360 1b 01 97 3d 61 f6 85 3d fd df 86 3d 00 aa 4e 39
       0.07373258 0.06541134 0.06585691 0.00019709021
000370 5f 91 dd bd 5b cb b5 3d 6a 7f 14 bd 41 7f 7f bd
       -0.10818743 0.088766776 -0.036254324 -0.06237722
000380 60 e1 11 bd 44 cb f3 3c 30 72 15 bc e6 9c 42 3d
       -0.035615325 0.02976001 -0.009121463 0.04751291
000390 41 2e aa 3d 6f 51 86 3d 9d b8 93 3d 11 3c c4 3d
       0.083096035 0.06558501 0.072129466 0.09581769
0003a0 4c 7a 98 bc 76 e1 79 3d 97 62 49 bd 71 59 bd 3d
       -0.018613003 0.061006032 -0.04916629 0.09245575
0003b0 60 7a 4b bb 8e 2f 0a 3d 0c 09 be bd c1 f3 98 3d
       -0.0031048283 0.033736758 -0.09279069 0.07468367
0003c0 de 5e 40 bd 4b 8c aa 3d 49 3c 92 3d c0 1b 38 3c
       -0.046965472 0.0832754 0.07140405 0.011237085
0003d0 17 86 8c 3d fb 4f ab bd 9d a9 8c 3d 4c 94 9b 3c
       0.06861513 -0.083648644 0.06868289 0.018991612
0003e0 81 89 c3 3d e0 0a a1 bc 92 bd 02 3d c0 3f 6b bb
       0.09547711 -0.019658506 0.03191907 -0.0035896152
0003f0 8e b7 32 3d ce 20 50 3d ae c8 d0 bd 6c 55 e9 3c
       0.043632083 0.050812535 -0.101945266 0.028483115

fc3.bias f4 [10]
000000 f2 25 db bd 28 da aa bd 9c ae 27 bd 00 b8 5c 38
       -0.10700597 -0.08342391 -0.040938005 5.262345e-05
000010 52 97 80 bd 30 4e 9a bd 0a 0c 7a 3d 70 5d c4 bc
       -0.06278862 -0.07534444 0.061046638 -0.023970336
000020 34 9f d4 3c 8a 49 7f 3d
       0.02595482 0.06232599
