models/conv_net.onnx (onnx, 251478 bytes, 10 tensors)

conv1.weight f4 [6, 3, 5, 5]
0	0x3dcfcde8	0.101466954
1	0xbd0ac828	-0.03388229
2	0x3bea6690	0.0071533397
3	0x3dd77224	0.105198175
4	0xbc4c1960	-0.012457222
5	0x3d6cd484	0.05781986
6	0xbd629e5d	-0.05532681
7	0xbace8240	-0.001575537
8	0xbc32f010	-0.010921493
9	0xbd63c0e3	-0.055603873
10	0xbcabb560	-0.02096051
11	0xbde9bd71	-0.11413086
12	0x3dda5a0a	0.10661705
13	0x3a919fc0	0.0011110231
14	0xbd38580c	-0.045005843
15	0x3d48bd7c	0.04900883
16	0xbcf48374	-0.029847838
17	0x3dbbde40	0.0917325
18	0x3bb08090	0.0053864196
19	0x3ddaa84e	0.10676633
20	0x3b3676e0	0.002784185
21	0xbd2213ba	-0.039569594
22	0xbdc9c0fc	-0.09851262
23	0x3d88f1c4	0.06686738
24	0xbd9660d2	-0.07342686
25	0x3d73e648	0.059545785
26	0x3c023bf8	0.007948868
27	0xbd6aaf5b	-0.05729614
28	0xbdbcd154	-0.09219614
29	0x3cb00510	0.021486789
30	0xba54b980	-0.00081148
31	0x3cd1dc38	0.025617704
32	0x3c8b4b38	0.01700364
33	0xbc9f839c	-0.019471936
34	0xbdc3ced9	-0.095609374
35	0x3ce6f660	0.028193653
36	0xbd63a641	-0.055578474
37	0xbdd3cb4a	-0.10341509
38	0x3d9611d4	0.07327619
39	0x3ca991d0	0.020699412
40	0xbd3af644	-0.045645013
41	0x3d9d390e	0.07676898
42	0x3dc1caba	0.09462495
43	0xbd538ce2	-0.05164803
44	0x3a434480	0.0007448867
45	0xbd4c8532	-0.049931712
46	0x3dd5d194	0.104403645
47	0x3cc7b668	0.02437897
48	0xbdc32583	-0.09528639
49	0xbdc497fe	-0.09599303
50	0x3d4bd8ac	0.04976718
51	0xbc0d0898	-0.008608006
52	0xbb989660	-0.004656598
53	0xbd431fae	-0.047637634
54	0xbdb588db	-0.08863994
55	0xbd77a89b	-0.06046353
56	0x3dd011ae	0.10159622
57	0x3d6d4588	0.05792764
58	0xbc569c50	-0.013098791
59	0xbd0968ea	-0.03354732
60	0x3da3c322	0.07996203
61	0x3d76854c	0.060185716
62	0x3c809850	0.015697628
63	0xbd854e6e	-0.065091
64	0x3da9b0ca	0.08285673
65	0x3d8a8596	0.06763761
66	0xbd9a83e8	-0.0754469
67	0x3d541274	0.05177541
68	0xbde16d41	-0.11007167
69	0xbcfc64cc	-0.030809782
70	0x3db20764	0.08692816
71	0x3dd24fce	0.10269128
72	0x3d8c2f5e	0.06844972
73	0xbd33bd12	-0.043881483
74	0xbd9731b6	-0.073825285
75	0xbd84879e	-0.064711794
76	0xbddcab47	-0.10774856
77	0xbd2eb61a	-0.042654134
78	0xbc4f7e10	-0.012664333
79	0x3db4cf86	0.088286445
80	0x3d180cfc	0.037121758
81	0xbdd7ea6c	-0.10542759
82	0xbdea6bbe	-0.114463314
83	0xbc852d98	-0.016257092
84	0x3d0ebcf8	0.034848183
85	0x3dd26704	0.10273555
86	0x3d1096c8	0.035300046
87	0x3d1a7da4	0.037717476
88	0x3cc5c688	0.024142519
89	0xbd30d120	-0.043168187
90	0x3dc16744	0.094435245
91	0x3dbc44f4	0.09192839
92	0x3d732f24	0.05937113
93	0xbdd070d3	-0.101777695
94	0xbb6cb340	-0.0036117584
95	0xbd073afe	-0.033015244
96	0x3c0e87a8	0.008699335
97	0x3d4d2de4	0.050092593
98	0x3d2538f8	0.040337533
99	0xbdab45a6	-0.08362894
100	0x3dd6acf6	0.104822084
101	0x3da24502	0.079233184
102	0x3daa88c8	0.0832687
103	0x3c4942c0	0.012283981
104	0x3dc0b0f6	0.094087526
105	0xbd999881	-0.07499791
106	0x3d8011ec	0.06253418
107	0xbbd77c00	-0.0065760612
108	0xbdac18a7	-0.084031396
109	0xbbb7f970	-0.005614452
110	0xbc702fd0	-0.014659837
111	0xbc9e7250	-0.019341618
112	0x3dbc4676	0.09193127
113	0xbd1d1398	-0.038348764
114	0xbdcb2a69	-0.099201985
115	0x3da0ad16	0.078455135
116	0xbc979c58	-0.018507168
117	0x3d57e7d8	0.052711338
118	0x3d1ed72c	0.038779423
119	0xbd5ec0fc	-0.054383263
120	0x3cdcbf50	0.026946694
121	0x3d94ee36	0.07271998
122	0x3ddd2856	0.10798709
123	0xbde342c3	-0.11096718
124	0xbde38484	-0.1110926
125	0x3dd1dc2c	0.102470726
126	0x3cb71210	0.02234748
127	0xbd113692	-0.035452433
128	0x3da596a6	0.080853745
129	0x3d535054	0.05159028
130	0x3d813590	0.06309044
131	0x3debb65c	0.11509392
132	0xbd83709e	-0.064179644
133	0xbd355958	-0.044274658
134	0x3dad9182	0.08475019
135	0x3dd03ee0	0.101682425
136	0xbb4d9c80	-0.00313738
137	0x3ce98f78	0.028510794
138	0x3dd30d2a	0.10305245
139	0xbd10371c	-0.035208806
140	0x3d1d6f30	0.038436115
141	0x3dae2480	0.085030556
142	0xbd623a1b	-0.055231195
143	0x3a6b6c00	0.0008980632
144	0x3d905e3a	0.07049222
145	0x3de7b4e0	0.11313796
146	0x3c3242a0	0.010880142
147	0xbdc7847d	-0.09742067
148	0x3d35e248	0.04440525
149	0x3db0e90e	0.08638202
150	0x3bc448e0	0.0059901327
151	0x3d24041c	0.04004298
152	0x3c4019d0	0.011724904
153	0xbd317764	-0.04332675
154	0xbd74cdb6	-0.059766494
155	0xbd15dc7e	-0.03658723
156	0x3d81e87c	0.06343171
157	0x3d7cfc4c	0.061764047
158	0xbcdbcbec	-0.026830636
159	0x3d8bb0e6	0.0682085
160	0xbde5b926	-0.11216955
161	0x3d409d58	0.047025055
162	0x3dd0fece	0.1020485
163	0xbdc439b0	-0.095813155
164	0x3db3c478	0.08777708
165	0xbd83d830	-0.06437719
166	0x3da520ae	0.08062874
167	0x3cdb9638	0.026805028
168	0x3d0ef0c4	0.03489758
169	0x3b2b21c0	0.0026112646
170	0x3de2b07e	0.110688195
171	0x3d9b31ca	0.07577856
172	0x3d235cd4	0.03988345
173	0x3de6b762	0.11265446
174	0x3da54a86	0.08070855
175	0x3cc1fc08	0.023679748
176	0xbdc95989	-0.098315306
177	0x3dea93f4	0.11454001
178	0x3ced1b60	0.028943717
179	0xbdadf7fa	-0.084945634
180	0xbd2d5646	-0.042318605
181	0xbd786a39	-0.060648177
182	0x3d0ca2c8	0.034334928
183	0xbdcf7141	-0.10129023
184	0xbd640adc	-0.05567442
185	0xbd81a4bc	-0.06330249
186	0xbd2092da	-0.03920255
187	0xbd11d618	-0.035604566
188	0x3d864292	0.06555666
189	0xbcba4b64	-0.022741027
190	0x3da72aac	0.08162436
191	0xbdbc0c67	-0.09182053
192	0xbdac294c	-0.08406314
193	0x3dd56e46	0.104214236
194	0x3c8f8878	0.017521128
195	0x3cc34450	0.023836285
196	0x3dcea1ee	0.100894794
197	0x3d9dcb60	0.07704806
198	0xbce31110	-0.027718097
199	0xbdab987f	-0.08378696
200	0x3c4e2010	0.0125808865
201	0x3da1889e	0.07887386
202	0x3ca09460	0.019602
203	0x3d6a21e4	0.057161227
204	0x3da175d8	0.07883805
205	0xbdcf5502	-0.10123636
206	0x3cd27440	0.025690198
207	0xbdae7b4a	-0.08519609
208	0xbaded380	-0.0017000288
209	0x3c98e5c0	0.01866424
210	0xbd9e25ce	-0.077220544
211	0xbdd4a2cc	-0.103826135
212	0x3d8857d4	0.06657377
213	0x3bdc75f0	0.0067279264
214	0x3da1b2c8	0.07895428
215	0xbca62b98	-0.020284459
216	0x3d398088	0.045288593
217	0x3c24d140	0.010059655
218	0xbd62fb46	-0.055415414
219	0x3b948100	0.0045319796
220	0xbd9f8833	-0.0778965
221	0x3a636880	0.00086749345
222	0x3dddbea2	0.10827376
223	0x3a3d5980	0.00072231144
224	0xbbfef060	-0.00778012
225	0xbd1d0ea8	-0.038344055
226	0x3d8459d2	0.06462444
227	0x3da4983e	0.080368504
228	0xbc8832d8	-0.016625807
229	0xbd2025ea	-0.039098658
230	0x3c8b7188	0.01702191
231	0xbca39404	-0.01996804
232	0xbccaf0dc	-0.024773054
233	0x3c16cb40	0.009203732
234	0x3db8736a	0.090063885
235	0xbdac456a	-0.08411677
236	0x3d083f44	0.03326346
237	0xbd4e64a0	-0.050388932
238	0x3d83e520	0.064401865
239	0x3cfe1a50	0.031018406
240	0xbdc92464	-0.09821394
241	0x3d4d9908	0.05019477
242	0xbc03d1f0	-0.0080456585
243	0xbdc3ec67	-0.095665745
244	0xbcafdb18	-0.021466777
245	0x3d9e4036	0.07727091
246	0x3b25f220	0.002532132
247	0x3d8279ba	0.06370874
248	0x3d8a066a	0.06739505
249	0x3da7ea38	0.081989706
250	0xbce0b06c	-0.027427875
251	0xbde7f18b	-0.113253675
252	0xbd32489c	-0.043526277
253	0xbdd68cae	-0.10476051
254	0x3db5fdbc	0.088862866
255	0xbdc6ce20	-0.09707284

conv1.bias f4 [6]
0	0x3dc606ec	0.09669289
1	0xbd1dd1c6	-0.038530134
2	0xbd535d3a	-0.05160258
3	0xbda3973e	-0.079878315
4	0x3d0e958c	0.034810588
5	0xbd23f702	-0.040030487

conv2.weight f4 [16, 6, 5, 5]
0	0xbd4d5df9	-0.050138447
1	0x3d6973c0	0.056995153
2	0x3c26d780	0.010183215
3	0x3c71ec48	0.0147658065
4	0xbd7bb56a	-0.061452307
5	0x3b1b79e0	0.0023723766
6	0x3b604160	0.0034218654
7	0x3c5f3048	0.013622351
8	0x3d958fbe	0.07302807
9	0xbbaa1520	-0.0051905066
10	0x3da6947a	0.081337884
11	0xbcbbb2be	-0.02291238
12	0xbd83af54	-0.064299256
13	0x3d3bf950	0.04589206
14	0xbcd95798	-0.026531026
15	0xbd3c88da	-0.04602895
16	0x3bbad450	0.005701579
17	0xbb1ee000	-0.00242424
18	0x3d6384ac	0.055546448
19	0xbd8d4c15	-0.06899277
20	0x3ca99968	0.020703033
21	0xba695980	-0.0008901581
22	0x3c3ef6e8	0.011655547
23	0xbc202330	-0.009774014
24	0xbd7160a6	-0.05893006
25	0x3cc024e8	0.023455098
26	0xbce63490	-0.028101236
27	0x3cf109ec	0.029423676
28	0x3d7ee644	0.062231317
29	0xbd40bab5	-0.047053058
30	0x3d808f90	0.062773824
31	0x3d852cee	0.0650271
32	0xbda3b370	-0.07993209
33	0x3c00d540	0.007863343
34	0x3cec186c	0.028820239
35	0xbce3dcb4	-0.0278152
36	0x3cac9a54	0.021069683
37	0xbcec50d4	-0.028847136
38	0xbc65f830	-0.014036223
39	0xbd0ca863	-0.034340274
40	0x3cb15790	0.021648198
41	0xbd984d1c	-0.074365824
42	0x3d2b2948	0.041787416
43	0xbd1edbbf	-0.038783785
44	0x3c5590f8	0.0130350515
45	0xbd5aa6ac	-0.053381607
46	0xbd455530	-0.048176944
47	0x3c5536d0	0.013013557
48	0xbd83ad8f	-0.06429588
49	0xbd940451	-0.07227386
50	0xbd6968ce	-0.056984715
51	0x3cccd75c	0.025005035
52	0x3d87ab58	0.06624478
53	0xbb76ef00	-0.0037679076
54	0x3cf3c088	0.029754892
55	0xbc536240	-0.012901843
56	0x3d986be4	0.074424535
57	0xbd7560e4	-0.059906855
58	0xbd00503b	-0.031326514
59	0x3cafafdc	0.021446161
60	0xbd911fbc	-0.07086131
61	0x3d428064	0.047485724
62	0x3d2d5eb0	0.04232663
63	0x3c96ca0c	0.01840689
64	0xbd99e1d4	-0.075137764
65	0xbc88f9c8	-0.016720667
66	0x3d829de8	0.063777745
67	0x3d17fec8	0.037108213
68	0xbd2f66c6	-0.04282262
69	0xbd5f4484	-0.0545087
70	0x3cbb0550	0.022829682
71	0xbd4ebdca	-0.050473966
72	0xbd0087c8	-0.03137949
73	0x3d27e690	0.040991366
74	0xbc8625e0	-0.016375482
75	0xbb8c0ee0	-0.004274234
76	0x3d8c62cc	0.068547815
77	0xbc28ff80	-0.010314822
78	0xbc464150	-0.012100533
79	0xbc7dd5a8	-0.015492834
80	0xbbf453e0	-0.0074562877
81	0x3d045ec0	0.032316923
82	0xbc43dd88	-0.011954673
83	0xbd9fbd7d	-0.07799814
84	0x3d821cd8	0.06353158
85	0xbc106a38	-0.008814387
86	0x3da12b16	0.07869546
87	0xbb698c40	-0.0035636574
88	0x3cf50dcc	0.029913805
89	0xbd1562b3	-0.03647108
90	0xbd6da751	-0.058020893
91	0xbd160a0d	-0.03663068
92	0xbda25582	-0.079264656
93	0xbcad595e	-0.021160778
94	0xbd7f58fa	-0.062340714
95	0xbd4f2b2c	-0.05057828
96	0x3d029ec2	0.031889684
97	0x3d9381dc	0.07202503
98	0xbb6d7380	-0.0036232173
99	0xbd38539b	-0.045001607
100	0x3cdd8d40	0.027044892
101	0x3bbfd730	0.00585451
102	0xbb54df20	-0.0032481626
103	0xbd3a39cf	-0.045465287
104	0x3d39c884	0.045357242
105	0x3da73526	0.08164434
106	0x3ba34450	0.0049825087
107	0x3cfb873c	0.030704133
108	0xbd544ea8	-0.051832825
109	0x3d886b26	0.06661062
110	0x3d7a6064	0.06112708
111	0xba559280	-0.00081471354
112	0x3cb699c8	0.022290125
113	0x3d0dd5ea	0.034627832
114	0x3d54b908	0.051934272
115	0xbba7a650	-0.0051162615
116	0xbd6c4550	-0.05768329
117	0xbd87e371	-0.06635178
118	0x3d2d7c78	0.04235503
119	0xbda072d0	-0.07834399
120	0xbce55774	-0.027995802
121	0xbd1b414a	-0.03790406
122	0xbd04cb24	-0.032420292
123	0xbcde2ec4	-0.027121909
124	0xbafdd7c0	-0.0019366667
125	0xbd2289f9	-0.039682362
126	0xbd04399a	-0.032281496
127	0xbcbaf68a	-0.022822637
128	0x3bd6f9b0	0.006560527
129	0x3d0652ae	0.032793693
130	0x3b53f260	0.0032340512
131	0xbd4b9778	-0.049705
132	0x3c2e3ff0	0.010635361
133	0x3d9e3916	0.07725732
134	0xbd75cd2b	-0.060010117
135	0xbc88dec8	-0.016707793
136	0xbcc6185c	-0.024181537
137	0xbcad3d52	-0.021147404
138	0xbd06518d	-0.032792617
139	0xbc970880	-0.01843667
140	0x3b0180e0	0.0019760653
141	0x3d6ea5b4	0.058263496
142	0xbb9750a0	-0.0046177655
143	0x3d87b296	0.066258594
144	0xbd091176	-0.033463918
145	0x3d8b1ae4	0.06792238
146	0xbc8fbc28	-0.017545775
147	0x3da39482	0.0798731
148	0x3c97d6a4	0.018534966
149	0x3d1ca0e2	0.038239367
150	0x3ce27ff8	0.02764891
151	0xbc1f3e80	-0.009719491
152	0xbd942a56	-0.072346374
153	0x3bc2bf70	0.0059432313
154	0xbc390e40	-0.011294901
155	0x3c034ee0	0.008014411
156	0x3d7d1db8	0.06179592
157	0x3d8f02be	0.06982945
158	0x3d063dc0	0.032773733
159	0xbccc780c	-0.024959587
160	0x3d73fa50	0.05956489
161	0x3d7fe280	0.062471867
162	0xbd807a6a	-0.06273349
163	0xbd7ddcf0	-0.06197828
164	0x3b9e7a80	0.0048363805
165	0xbce94a6c	-0.02847787
166	0xbd22be87	-0.039732482
167	0x3d111244	0.03541781
168	0x3d968132	0.07348861
169	0xbb6d8ca0	-0.003624715
170	0xbd6ca38f	-0.05777317
171	0x3d94885c	0.07252571
172	0x3d2e2390	0.042514384
173	0x3c644538	0.013932519
174	0x3d7e3718	0.06206426
175	0xbd09a0c2	-0.033600576
176	0x3d9ef82c	0.07762179
177	0x3ca8bb88	0.020597234
178	0x3d042b1a	0.032267667
179	0xbd19b3a5	-0.037524838
180	0x3d7ed610	0.062215865
181	0xbd85781c	-0.0651705
182	0x3cef6ae8	0.029225782
183	0xbd6bdd2c	-0.057583973
184	0x3d9365a6	0.07197122
185	0xbd8ec607	-0.069713645
186	0xbd2633b3	-0.040576648
187	0xbd059a59	-0.0326179
188	0xbd90ec24	-0.0707629
189	0xbd7f03c3	-0.062259447
190	0x3d9d8bf8	0.076927125
191	0xbbf008e0	-0.0073252767
192	0xbcfff642	-0.031245355
193	0x3ce8382c	0.028347097
194	0x3d4aad84	0.049481884
195	0xbd9b4ab2	-0.075826064
196	0x3d671410	0.056415617
197	0xbb61b920	-0.0034442618
198	0xbd895ff3	-0.06707754
199	0xbd85b70a	-0.065290526
200	0xbd4394c7	-0.047749307
201	0xbda57b2d	-0.080801345
202	0xbd0bb5e9	-0.03410903
203	0x3d741ae4	0.059595957
204	0xbc8ce698	-0.0171998
205	0xbd384e71	-0.044996683
206	0x39672c00	0.00022046268
207	0x3cf5cfe8	0.030006364
208	0x3d55c780	0.05219221
209	0xbd04f6b9	-0.032461856
210	0x3d038456	0.032108627
211	0xbcf5e78a	-0.030017633
212	0x3ce53b24	0.027982302
213	0x3d5cd650	0.05391532
214	0x3cf78ed0	0.030219465
215	0xbd8ad241	-0.06778384
216	0xbd9e5b26	-0.07732229
217	0x3d09a1ae	0.033601455
218	0x3d7ea218	0.062166303
219	0xbccab59c	-0.024744801
220	0x3c2ab9e0	0.010420293
221	0xbd8d976e	-0.069136485
222	0xbd3d86f2	-0.046271272
223	0x3be55510	0.0069986656
224	0x3d6dfa18	0.058099836
225	0xbd1c81e6	-0.03820982
226	0xbd87ad6e	-0.06624876
227	0x3bfd5990	0.007731624
228	0xbd634be8	-0.05549231
229	0x3d823a24	0.06358746
230	0x3d7d8240	0.061891794
231	0xbd85e6a6	-0.06538133
232	0x3da50d64	0.08059195
233	0xbc9d26d4	-0.019183554
234	0x3d13bb80	0.036067486
235	0x3b478660	0.0030445084
236	0xbbabb260	-0.00523977
237	0xbd40757f	-0.046987053
238	0xbd142a4a	-0.036173142
239	0xbd923ac7	-0.07140117
240	0x3d188242	0.0372336
241	0x3d5d8374	0.05408044
242	0x3cd5d2bc	0.026101463
243	0x3ccc4a04	0.024937637
244	0xbcc5fe9e	-0.024169262
245	0xbbb64110	-0.0055619553
246	0xbd394c84	-0.045238987
247	0x3d598984	0.05310966
248	0x3d76088c	0.060066745
249	0x3c8408e4	0.01611752
250	0x3d4bed68	0.049786955
251	0xbc848174	-0.01617501
252	0xbd469336	-0.048480235
253	0x3d3d1c80	0.046169758
254	0x3cd844c8	0.026399985
255	0x3d5a1748	0.05324486

conv2.bias f4 [16]
0	0x3d1429d2	0.036172695
1	0xbd945744	-0.07243207
2	0xbcaef626	-0.021357607
3	0xbd45a692	-0.048254557
4	0x3d7857b0	0.0606305
5	0xba8e9a00	-0.0010879636
6	0x3da1b7e0	0.078963995
7	0x3d452f18	0.048140615
8	0x3d1c6ada	0.03818784
9	0x3d270fac	0.04078643
10	0xbc32f048	-0.010921545
11	0xbd68c110	-0.056824744
12	0x3d4f1d50	0.050565064
13	0x3c255cb0	0.010092899
14	0x3cd444f8	0.025911793
15	0x3d04271c	0.03226386

fc1.weight f4 [120, 400]
0	0xbd2aaa8d	-0.041666556
1	0xbd1b9b4e	-0.037989907
2	0xba19e340	-0.00058703497
3	0xbcb113fa	-0.02161597
4	0xbc615c08	-0.013754852
5	0x3b5730b0	0.0032835416
6	0x3cdce306	0.026963722
7	0x3cc2b86e	0.023769584
8	0x3d2b287f	0.041786667
9	0x3d3f1a4d	0.04665594
10	0xbcc021ba	-0.023453582
11	0x3cd3e442	0.025865678
12	0xb99c6580	-0.00029830262
13	0x3cc79062	0.02436084
14	0x3d1846a1	0.037176732
15	0xbcd5daa0	-0.026105225
16	0x3c7fd394	0.015614409
17	0xbd36aa62	-0.044596083
18	0xbbd5a450	-0.0065198317
19	0x3b490960	0.0030675754
20	0x3c1331d4	0.008984048
21	0xbd1dce9a	-0.03852711
22	0x3c9e520e	0.019326236
23	0x3d4be881	0.04978228
24	0xbc8167da	-0.01579659
25	0x3d461b31	0.048365775
26	0x3cdbdfb6	0.026840072
27	0x3beafd10	0.0071712807
28	0x3d24954d	0.040181447
29	0xbd33a240	-0.043855906
30	0x3d305cfd	0.04305743
31	0xbc6fb4a0	-0.014630467
32	0xbd274486	-0.040836833
33	0x3bbaee50	0.0057046786
34	0xbb488bb0	-0.0030600838
35	0xbd3cb482	-0.046070583
36	0x3c803a32	0.01565275
37	0xbcb4350d	-0.021997953
38	0x3b9786d0	0.004624225
39	0xbd0c8aa0	-0.03431189
40	0x3c8e847a	0.017397154
41	0xbcd8df47	-0.026473654
42	0xbce9f3a0	-0.028558552
43	0x3bad0070	0.005279593
44	0x3ca1fee2	0.019774858
45	0xbc7fe328	-0.015618123
46	0xbccf92da	-0.025338579
47	0x3c5ecacc	0.013598155
48	0x3c25266c	0.010079961
49	0x3d45304f	0.048141774
50	0xbd3b7d6b	-0.045773905
51	0x3cdc8352	0.026918087
52	0xbd1c2a53	-0.0381263
53	0xbd3f61f8	-0.04672429
54	0x3c080b40	0.008303463
55	0xbb8a3640	-0.004217893
56	0xbd225772	-0.039634176
57	0x3c8037fa	0.015651692
58	0x3c812b3e	0.01576769
59	0x3d40b88b	0.047050994
60	0xbc7c6bd8	-0.015406571
61	0x3cbb7cb6	0.022886615
62	0x3c2cde40	0.010551035
63	0x3c9e28be	0.019306537
64	0x3d449d15	0.048001368
65	0xbd1db21a	-0.03849993
66	0x3bee1630	0.0072658285
67	0xbd44f592	-0.048085757
68	0xbcb2ec43	-0.021841174
69	0xbcf07ca0	-0.0293563
70	0xbd3052d5	-0.043047745
71	0x3c8128a2	0.015766446
72	0x3cf9c1a6	0.030487847
73	0xbd3519d2	-0.044214077
74	0xbbe979e8	-0.007125128
75	0xbd2f1845	-0.042747755
76	0x3a882260	0.0010386221
77	0xbd240110	-0.040040076
78	0x3c7b038c	0.01532067
79	0xbd16ff1b	-0.03686438
80	0x3bb10270	0.005401902
81	0x3c20d180	0.009815574
82	0x3c5c35cc	0.013440561
83	0x3be2ff80	0.0069274306
84	0x3d0de91b	0.034646135
85	0xbb3c3420	-0.0028717592
86	0xbc4ff7d8	-0.012693368
87	0xbd4973d5	-0.04918273
88	0xbd1c6de0	-0.038190722
89	0xbd1e8242	-0.038698442
90	0xbbbbec80	-0.00573498
91	0xbd2227aa	-0.039588608
92	0xbc9ebaa3	-0.019376105
93	0x3cb769f2	0.022389386
94	0x3cd9d872	0.026592467
95	0x3c1ee58c	0.009698283
96	0xbd1e004e	-0.03857451
97	0x3d2eb311	0.04265124
98	0xbcd03a83	-0.025418526
99	0xbc9ee1a0	-0.019394696
100	0x3caa4c32	0.020788286
101	0xbcc86bbd	-0.024465436
102	0x3aea5140	0.0017876998
103	0xbd0149c2	-0.03156448
104	0x3a5e2680	0.0008474365
105	0x3bda0328	0.0066532083
106	0x3cbce2ea	0.02305742
107	0x3b6d4e50	0.0036210008
108	0xbd38933d	-0.045062292
109	0x3cfc7252	0.03081623
110	0xbc57a574	-0.013162006
111	0xbd0a199c	-0.03371583
112	0x3bf45b30	0.0074571595
113	0xbbff4b40	-0.007790953
114	0xbcd9aeda	-0.026572634
115	0xbcbc66d3	-0.02299825
116	0xbceea1dd	-0.029129917
117	0x3d43db2d	0.047816444
118	0xbc1067b4	-0.008813787
119	0xbcdef36d	-0.027215684
120	0x3d4c9c39	0.049953673
121	0xbd0a2b5e	-0.033732764
122	0x3cec336e	0.028833117
123	0x3cecabca	0.02889051
124	0xbd414ebf	-0.04719424
125	0xbd06d2a2	-0.03291572
126	0x3c5ac104	0.013351683
127	0xbd37bf8b	-0.044860404
128	0xbd07732a	-0.033068813
129	0xbb63d3b0	-0.0034763627
130	0xbc354940	-0.011064827
131	0xbd3478a8	-0.04406038
132	0x3c94a0c6	0.018143069
133	0x3d21c1f3	0.039491605
134	0x3caf0852	0.021366272
135	0xbd175243	-0.036943685
136	0xbcbbc67a	-0.02292179
137	0x3c9bffa2	0.019042794
138	0x3c9316c2	0.017955188
139	0xbcdcef83	-0.026969677
140	0xbca77f7a	-0.020446528
141	0x3d2421c1	0.040071253
142	0x3c5453ec	0.012959462
143	0xbbe76498	-0.0070615523
144	0x3b5150b0	0.0031938963
145	0x3c6fd2a4	0.014637623
146	0x3cb80346	0.022462498
147	0x3d46d451	0.048542324
148	0x3cea0442	0.028566483
149	0x3c9953c2	0.018716697
150	0xbc0ba70c	-0.008523714
151	0x3d293e61	0.041319255
152	0x3d0530c9	0.03251723
153	0xba7e2180	-0.0009694323
154	0xbbdd0598	-0.0067450516
155	0xbcf7e2e0	-0.03025955
156	0xbd2356e8	-0.039877802
157	0x3bf8a398	0.0075878613
158	0xbcfcf180	-0.030876875
159	0x3ce18c92	0.02753285
160	0x3d2f72f9	0.042834256
161	0xbd43d0ef	-0.047806676
162	0x3ccc3516	0.024927657
163	0x3d4a99a9	0.049462948
164	0x3d4509cb	0.048105042
165	0x3d04037b	0.03222988
166	0x3c87f91e	0.01659828
167	0x3cee02f2	0.029054139
168	0xbd040d22	-0.032239087
169	0xbcac3a63	-0.021023935
170	0xbcca77ad	-0.024715269
171	0xbc677768	-0.01412759
172	0x3ce03302	0.027368072
173	0xbce4c49d	-0.027925784
174	0x3d027f79	0.03185985
175	0xbca9d800	-0.02073288
176	0xb9027200	-0.00012440234
177	0xbd2bda8a	-0.041956462
178	0xbcf8aa7a	-0.030354727
179	0x3d2afc85	0.041744728
180	0xbaebcaa0	-0.0017989464
181	0x3c98e8f6	0.018665772
182	0x3ca94722	0.020663802
183	0x3cf79842	0.03022397
184	0xbb492e30	-0.0030697696
185	0x3cfa8516	0.030581038
186	0xbc051cd8	-0.008124553
187	0x3c72cea4	0.014819775
188	0xbc0850d8	-0.008320056
189	0xbc1d0e0c	-0.009585869
190	0xbc16518c	-0.009174716
191	0xbc3644b8	-0.011124782
192	0x3c18a2b4	0.009316135
193	0xbb757380	-0.0037452877
194	0xbd29cf32	-0.041457362
195	0x3d3e586f	0.046471056
196	0x3d358b87	0.044322517
197	0x3ce97592	0.028498445
198	0xbbeeee80	-0.007291615
199	0x3b0a5060	0.0021105036
200	0x3d4118cb	0.047142785
201	0x3ce55a5e	0.027997192
202	0x3c897b9e	0.016782578
203	0x3d33c3b7	0.04388782
204	0xbc913780	-0.01772666
205	0xbc310c20	-0.0108061135
206	0x3c14cf0c	0.009082567
207	0xbcf73e60	-0.03018111
208	0x3ca017ca	0.019542594
209	0xbd488968	-0.048959166
210	0xbc979ef6	-0.018508416
211	0x3c11756c	0.008878093
212	0x39356800	0.00017300248
213	0xbb219780	-0.0024656951
214	0xbccf0463	-0.025270646
215	0x3c3811f8	0.011234753
216	0x3c042b88	0.008067019
217	0x3c31d9c0	0.010855138
218	0x3c565c3c	0.013083514
219	0xbd334102	-0.04376317
220	0xbcc6ee1d	-0.024283463
221	0x3c807f02	0.015685562
222	0x3c8e8d22	0.017401282
223	0xbd39e86f	-0.04538768
224	0xbd0d061a	-0.034429647
225	0x3d1f38ed	0.038872648
226	0xbcb8983d	-0.02253353
227	0x3d2840e9	0.04107753
228	0xbd415ab8	-0.047205657
229	0x3c92d342	0.017923001
230	0xbd2d8063	-0.042358767
231	0xbc6c39f8	-0.014418118
232	0xbcafb447	-0.021448268
233	0x3d149839	0.036277983
234	0xbbdefc28	-0.0068049617
235	0xbc7ef8b4	-0.015562225
236	0x3d186c11	0.037212435
237	0x3c889076	0.016670447
238	0x3d093bc9	0.03350428
239	0xbd0dfb4e	-0.03466349
240	0x3d002135	0.03128167
241	0x3c92fbb6	0.01794229
242	0x3c98b602	0.018641476
243	0x3d3debeb	0.046367567
244	0x3cdd894a	0.027043004
245	0x3be59800	0.007006645
246	0xbb863740	-0.004095942
247	0xbc7faba0	-0.015604883
248	0x3bac40c0	0.0052567422
249	0x3caa0ac2	0.020757083
250	0xbbdabc10	-0.006675251
251	0xbbdacd50	-0.006677307
252	0x3d2ba3ad	0.04190414
253	0xbc938616	-0.018008273
254	0x3d2c3ef7	0.042052235
255	0x3d1dfa3f	0.03856873

fc1.bias f4 [120]
0	0x3d07435b	0.03302322
1	0x3cdff4a2	0.02733833
2	0x3affb760	0.0019509606
3	0xbd34ff05	-0.044188518
4	0x3d2af753	0.041739773
5	0x3d047e39	0.032346938
6	0xbd3aa152	-0.045564003
7	0xb842c000	-4.643202e-05
8	0xbc0caa0c	-0.008585464
9	0x3d499845	0.04921748
10	0x3b1c7f30	0.002387952
11	0x3c100f20	0.008792669
12	0x3d2c1b5d	0.042018283
13	0x3d0bc539	0.034123633
14	0x3c6be6c4	0.0143982805
15	0xbcef743d	-0.029230231
16	0xbc37a494	-0.011208672
17	0x3b462380	0.0030233562
18	0xbd30fdc0	-0.043210745
19	0x3d3ed109	0.04658607
20	0x3cbce57a	0.023058642
21	0xbcd3a72a	-0.025836546
22	0x3cc7f0ae	0.024406757
23	0x3c47b6a8	0.012189545
24	0x3d43e0c1	0.047821764
25	0xbd1984b8	-0.037480086
26	0xbcffe85d	-0.03123873
27	0xbd2d7d78	-0.042355984
28	0x3d029ef1	0.03188986
29	0x3d1f42b7	0.038881984
30	0x3c674174	0.014114726
31	0xbcab685a	-0.020923782
32	0x3c002100	0.007820368
33	0x3c75fe5c	0.015014257
34	0x3c644d64	0.013934467
35	0xbd050202	-0.032472618
36	0x3d1c337b	0.038135033
37	0xbca0a0ea	-0.01960798
38	0xbcaf61a0	-0.021408856
39	0x3d37ba15	0.044855196
40	0x3d209a69	0.039209757
41	0xbca89fdd	-0.020584041
42	0xbc0767e8	-0.008264519
43	0xbc994a76	-0.018712264
44	0xbd365697	-0.044516172
45	0xbcdcc9e7	-0.026951743
46	0xbc33a688	-0.010964997
47	0xbcf4865a	-0.02984922
48	0x3c87f072	0.016594145
49	0x3d43663b	0.047704916
50	0xbbbb98a8	-0.005724985
51	0xbc46108c	-0.012088906
52	0x3d27990d	0.040917445
53	0x3be13780	0.006873071
54	0x3d4bded5	0.049773056
55	0xbc531c8c	-0.012885224
56	0xbb54a5b0	-0.003244739
57	0xbcfe4393	-0.031038081
58	0x3d2ac6b9	0.041693423
59	0x3d106b51	0.035258595
60	0x3c004854	0.007829744
61	0xb9a9d180	-0.00032390282
62	0x3d3f0d5f	0.04664361
63	0x3d0cc779	0.03436992
64	0xbcf9654d	-0.030443812
65	0x3d1579eb	0.036493223
66	0x39400d00	0.0001831539
67	0xbd086578	-0.033299893
68	0xbc83eba6	-0.016103577
69	0xbd39304b	-0.04521207
70	0xbd23b4c5	-0.039967317
71	0xbb6987e0	-0.0035633966
72	0xbcb28053	-0.021789705
73	0x3d4b0ca9	0.04957262
74	0x3ccd5ef2	0.025069688
75	0x3cc8e8ee	0.024525132
76	0xbd3c2eff	-0.045943256
77	0x3d237359	0.039904926
78	0xbbb4e310	-0.005520232
79	0x3ca2faa2	0.019894902
80	0xbbf507b0	-0.007477723
81	0x3d11a5a9	0.035558376
82	0x3c8d1286	0.017220747
83	0xbbbe2918	-0.0058032386
84	0x3ce0c3d2	0.027437124
85	0x3d0d8b51	0.03455669
86	0xbd15167d	-0.0363984
87	0xbd279966	-0.040917777
88	0x3ceabb7e	0.028653856
89	0xbd24b12a	-0.04020802
90	0x3ce5345a	0.027979065
91	0x3c285c28	0.010275878
92	0xbd269706	-0.04067137
93	0x3b64f220	0.0034934357
94	0x3d32a345	0.043612737
95	0xbc245d40	-0.010031998
96	0x3c6ade64	0.014335249
97	0x3d388b39	0.045054648
98	0x3c98d51e	0.01865631
99	0x3cd10052	0.025512848
100	0xbc79efec	-0.015254956
101	0x3cf31c26	0.029676508
102	0x3d046eb1	0.032332126
103	0x3c1f6bb4	0.009730268
104	0xbc882366	-0.016618442
105	0xbb875298	-0.004129719
106	0xbd3d04ab	-0.04614703
107	0xbd37e5aa	-0.04489676
108	0xbd2a90a6	-0.041641854
109	0xbd3a248d	-0.045445014
110	0xbcbd5fea	-0.023117024
111	0x3d1e89e9	0.03870574
112	0x3c52afc4	0.012859289
113	0xbba99bf0	-0.00517606
114	0x3c9cbde2	0.019133512
115	0xbc8f117c	-0.017464392
116	0x3d001225	0.031267304
117	0xbcc141da	-0.02359097
118	0xbd113993	-0.035455298
119	0x3c765114	0.015033979

fc2.weight f4 [84, 120]
0	0xbd23d08c	-0.039993808
1	0xbc686bd8	-0.014185868
2	0xbb41d340	-0.0029575378
3	0x3daff7b6	0.08592169
4	0xbc0b19f8	-0.008490078
5	0xbd8a32e9	-0.067479916
6	0x3d7c4150	0.061585724
7	0x3c030c50	0.007998541
8	0xbcc6e3dc	-0.024278574
9	0xbd187eaf	-0.03723019
10	0x3d464354	0.048404053
11	0xbd4ad4c2	-0.049519308
12	0xbd07cbb3	-0.033153247
13	0xbd61dd53	-0.05514271
14	0x3cd94bc0	0.026525378
15	0x3d5c3c80	0.053768635
16	0x3b6f9080	0.0036554635
17	0xbcfe5134	-0.03104458
18	0x3b197740	0.0023417026
19	0xbd9336bc	-0.07188174
20	0xbd854af8	-0.0650844
21	0xbda9f271	-0.08298195
22	0xbc1848b0	-0.009294674
23	0x3cbc6778	0.022998556
24	0x3cd17aa4	0.025571175
25	0xbd13c50a	-0.036076583
26	0x3d9adbd6	0.07561462
27	0xbd56a901	-0.05240727
28	0x3d11cda4	0.035596505
29	0xbd26634a	-0.040622033
30	0xbc237af8	-0.0099780485
31	0x3aa71a40	0.0012748912
32	0x3ca9c890	0.020725518
33	0xbd461c64	-0.04836692
34	0x3d8feca6	0.07027559
35	0xbd92f4a8	-0.07175571
36	0xbae81600	-0.0017706752
37	0xbd1ac1ac	-0.037782356
38	0xbc48c0f0	-0.012253031
39	0xbcca8e20	-0.024725974
40	0xbd8467fe	-0.064651474
41	0x3cbf180c	0.023326896
42	0xbd35e1cb	-0.044404786
43	0xbd2b0f46	-0.041762613
44	0x3cccb95c	0.02499073
45	0x3d82f532	0.063944235
46	0x3db0399a	0.086047366
47	0xbc258110	-0.010101572
48	0xbd8f1914	-0.06987205
49	0x3d453afc	0.048151955
50	0x3b023180	0.001986593
51	0x3c658638	0.014009051
52	0x3cc6d8fc	0.024273388
53	0xbd447d23	-0.047970902
54	0x3d560ca8	0.052258164
55	0xbc817978	-0.015804991
56	0xbd6939e3	-0.05693997
57	0x3db0aa5e	0.08626245
58	0x3d28c5f0	0.041204393
59	0x3d884da0	0.06655431
60	0xbc947bb8	-0.0181254
61	0xbca63c10	-0.020292312
62	0x3be11940	0.006869465
63	0xbd01c3b1	-0.031680766
64	0x3d896b20	0.067098856
65	0x3d0aeb00	0.03391552
66	0x3d9c6992	0.076373234
67	0x3db18c0a	0.086692885
68	0xbdab313d	-0.08359001
69	0xbdb11f63	-0.08648565
70	0xbdb1b00e	-0.08676158
71	0xbd793586	-0.06084206
72	0xbd8c16fd	-0.06840322
73	0xbc994550	-0.018709809
74	0x3d55cb34	0.052195743
75	0xbdaa9b9e	-0.08330463
76	0x3d075efc	0.03304957
77	0xbd86908f	-0.06570541
78	0x3db58ec6	0.088651225
79	0xbda6e9bf	-0.08150052
80	0xbd80c44a	-0.06287439
81	0x3d49ca1c	0.049265012
82	0xbd5e5b18	-0.054286093
83	0x3da08c9a	0.078393176
84	0xbcb8c5e8	-0.022555307
85	0x3d7bb6e0	0.0614537
86	0x3a954c80	0.0011390597
87	0xbd1d6f60	-0.038436294
88	0x3c3368f8	0.0109503195
89	0xbd9fea43	-0.07808354
90	0xbd9728ce	-0.0738083
91	0x3d550444	0.05200602
92	0xbc2ea238	-0.010658793
93	0x3dad0626	0.08448438
94	0xbd3b4775	-0.045722444
95	0xbcfff92e	-0.031246748
96	0xbd77bc8b	-0.060482543
97	0x3d1977bc	0.037467703
98	0x3d285484	0.041096225
99	0x3d4be514	0.049779013
100	0xbd1ff085	-0.039047737
101	0xbd3273d3	-0.04356749
102	0xbd805fbc	-0.0626826
103	0x3c44e4f0	0.012017474
104	0x3d441410	0.047870696
105	0x3d48d39c	0.04902993
106	0x3d7173ec	0.058948442
107	0xbd03a5dc	-0.032140598
108	0x3d6a0480	0.057133198
109	0x3d2e0270	0.042482793
110	0x3c87e1e0	0.016587198
111	0xbc93f290	-0.018059999
112	0x3ca42d3c	0.0200411
113	0xbd4735cc	-0.04863529
114	0xbd9addec	-0.075618595
115	0x3b6f5aa0	0.0036522523
116	0xbdb6a072	-0.08917321
117	0xbb716560	-0.0036834106
118	0xbd851d6a	-0.06499751
119	0x3d5d8614	0.054082945
120	0x3ceace68	0.028662875
121	0x3c132a20	0.008982211
122	0xbc949a18	-0.018139884
123	0xbda801b5	-0.082034506
124	0xbdb56f61	-0.088591345
125	0x3d796cb4	0.060894683
126	0x3c9225a0	0.017840207
127	0xbd9e90ee	-0.07742487
128	0xbc194020	-0.0093536675
129	0xbc556938	-0.013025574
130	0x3c9abf48	0.018890038
131	0xbbfe6280	-0.007763207
132	0xbd696009	-0.056976352
133	0xbd5592a0	-0.052141786
134	0x3c9db234	0.019250013
135	0x3d92bd88	0.071650565
136	0xbbc0b0a0	-0.0058804303
137	0x3dbad5fa	0.09122844
138	0xbd5d30d6	-0.05400165
139	0x3c9e6ca4	0.019338913
140	0x3d8ae83e	0.06782578
141	0x3bbc9490	0.0057550147
142	0x3d7634f4	0.060109094
143	0xbca3ec48	-0.020010129
144	0xbd9d48c3	-0.07679894
145	0xbd9624ae	-0.07331215
146	0xbd3919a5	-0.045190472
147	0x3cf9b270	0.030480593
148	0x3d31a9f0	0.043374956
149	0x3be1cb30	0.006890677
150	0xbcd21098	-0.025642678
151	0x3d1d1e28	0.038358837
152	0xbda430e0	-0.08017135
153	0x3c0d4b98	0.00862398
154	0x3db8a72a	0.09016259
155	0x3ca6d7e8	0.020366624
156	0xbd1ef786	-0.038810275
157	0x3d424e40	0.047437906
158	0xbd98d23b	-0.07461973
159	0xbda44c9d	-0.08022425
160	0xbd4491f4	-0.047990754
161	0xbd15b376	-0.0365481
162	0x3c841eec	0.016128026
163	0xbd71f510	-0.0590716
164	0xbd27e0f0	-0.040986
165	0xbd0f26e8	-0.034949213
166	0xbd8adb19	-0.06780071
167	0x3d719e10	0.05898863
168	0xbc914104	-0.017731197
169	0x3d9a00d8	0.07519692
170	0xbcba38d0	-0.022732168
171	0x3d0c3780	0.034232616
172	0x3d51e7bc	0.05124639
173	0x3d5a69dc	0.05332361
174	0x3c746bb8	0.01491826
175	0xbd7c3522	-0.06157411
176	0x3d139558	0.036031097
177	0xbd4b9eb3	-0.049711894
178	0x3d53f4d4	0.05174716
179	0xbd8a250f	-0.067453496
180	0x3d64f7e8	0.055900484
181	0xbcc91ed4	-0.024550833
182	0x3d687c1c	0.056758985
183	0x3d17084c	0.036873147
184	0xbd35dcb4	-0.044399932
185	0xbc84d164	-0.016213126
186	0x3c4b9770	0.012426242
187	0xbd944672	-0.07239999
188	0xbd90d55f	-0.07071947
189	0xbd35e739	-0.044409964
190	0xbc8e7b9c	-0.017392926
191	0x3cc78f10	0.02436021
192	0xbd27f67e	-0.041006558
193	0x3d7f5648	0.062338144
194	0xbd6f11f0	-0.058366716
195	0x3aabaec0	0.0013098344
196	0xbd996326	-0.07489614
197	0xbca69288	-0.020333543
198	0x3cb900c4	0.022583373
199	0x3d6c4b14	0.057688788
200	0x3d795e94	0.060881212
201	0x3cc92730	0.024554819
202	0xbd47a9a7	-0.048745777
203	0x3cfa549c	0.030557923
204	0xbd11d3ed	-0.0356025
205	0xbdb21a34	-0.08696404
206	0xbd404b9d	-0.04694711
207	0x3cae4d1c	0.021277003
208	0xbd71e1ee	-0.059053354
209	0x3db22c10	0.086998105
210	0x3d900f4c	0.07034168
211	0xbd40cbee	-0.047069483
212	0x3d9b6958	0.07588452
213	0xbda09362	-0.07840611
214	0xbcd95770	-0.026530951
215	0xbd8895fc	-0.06669232
216	0xbc26c428	-0.010178603
217	0xbd61a5d2	-0.05508978
218	0xbd51f949	-0.051263127
219	0x3caa93e4	0.020822473
220	0x3d9946ec	0.074842304
221	0xbb81e910	-0.003964551
222	0xbba0cfc0	-0.004907578
223	0x3cfde760	0.030994117
224	0xbcdf0118	-0.027222201
225	0x3cb62d94	0.02223853
226	0x3cf0a3dc	0.02937501
227	0xbd98a887	-0.07454019
228	0x3db5bd82	0.08874036
229	0xbd22a6ab	-0.03970973
230	0x3d6cbedc	0.057799205
231	0x3d98493a	0.07435842
232	0x3cd94ba8	0.026525334
233	0x3d554434	0.052066997
234	0xbd693e8e	-0.056944422
235	0xb8b1d400	-8.479506e-05
236	0xbd19f594	-0.037587717
237	0x3d7dc9f8	0.06196019
238	0xbd0af78a	-0.033927478
239	0xbd8edda6	-0.0697587
240	0x3c7669e0	0.015039891
241	0x3c919fb4	0.017776348
242	0xbd01377a	-0.031547047
243	0xbcdb20dc	-0.026749067
244	0x3d19d594	0.0375572
245	0x3d8764f4	0.06611052
246	0x3d4ff5e0	0.050771594
247	0xbc7b6938	-0.01534491
248	0xbcd6aa20	-0.026204169
249	0xbd964ea5	-0.07339219
250	0x3ce680a4	0.028137513
251	0x3d94f83c	0.072739094
252	0xbcbc9a9c	-0.023022942
253	0xbda60d84	-0.08108047
254	0xbd300d28	-0.042981297
255	0xbd3777f0	-0.044792116

fc2.bias f4 [84]
0	0x3d27eaec	0.040995523
1	0x3ca7b2ec	0.020471059
2	0x3d9731de	0.07382558
3	0xbc817f28	-0.015807703
4	0xbd84a642	-0.06477024
5	0x3d741ca0	0.05959761
6	0xbd921330	-0.07132566
7	0x3d896286	0.06708245
8	0x3d81a1d8	0.06329697
9	0xbceecbc6	-0.029149901
10	0xbd7cf508	-0.061757118
11	0xbd06dea6	-0.032927178
12	0xbc70d098	-0.01469817
13	0xbbe290a0	-0.0069142133
14	0x3c5adff0	0.013359055
15	0x3d167d04	0.036740318
16	0xbc23d920	-0.010000497
17	0xbc040d10	-0.008059755
18	0xbd99767a	-0.07493301
19	0x3909a600	0.00013127178
20	0x3bf2d490	0.0074105933
21	0xbdaa397b	-0.08311745
22	0x3c7ebac0	0.015547454
23	0x3d78e504	0.06076528
24	0xbcff1a3c	-0.03114044
25	0x3d60202c	0.05471818
26	0x3cc6e9f4	0.02428148
27	0x3dad075c	0.08448669
28	0x3cfda6f8	0.030963406
29	0x3d3f5a50	0.046716988
30	0x3d75b780	0.059989452
31	0x3b38cee0	0.002819948
32	0xbdb1dcbe	-0.08684681
33	0xbda94174	-0.08264437
34	0xbd6eb4d3	-0.058277916
35	0xbd94a5dd	-0.072581984
36	0xbcb28e1c	-0.021796279
37	0xbc285000	-0.01027298
38	0x3c5150a0	0.01277557
39	0xbd489c7c	-0.04897736
40	0xbc400f48	-0.011722393
41	0x3dacc92e	0.084368095
42	0x3d666004	0.05624391
43	0x3cbc42b4	0.022981025
44	0xbd8940ca	-0.06701811
45	0x3c9d356c	0.019190513
46	0xbcfd51b0	-0.03092274
47	0xbbe3ae90	-0.0069482997
48	0x3d9efe18	0.07763308
49	0xbbe6ecd0	-0.007047273
50	0x3d546554	0.051854447
51	0xbd82f1ea	-0.06393798
52	0xbd9c7e0f	-0.07641231
53	0xbc30ec50	-0.010798529
54	0x3d777220	0.060411572
55	0xbd6f15f1	-0.058370534
56	0x3ccd4be4	0.025060602
57	0x3d5b3bf0	0.053523958
58	0x3d7ccc68	0.061718374
59	0xbd7a7612	-0.061147757
60	0x3d6569d0	0.056009114
61	0xbc53efb8	-0.012935571
62	0x3da1c74c	0.07899341
63	0x3d620f4c	0.05519037
64	0x3c594738	0.013261609
65	0xbcd69c44	-0.02619756
66	0xbc370360	-0.011170238
67	0x3d8e5d1e	0.069513544
68	0x3ca652ec	0.020303212
69	0x3db4f1ae	0.08835159
70	0x3d603dc8	0.05474642
71	0x3b4c58a0	0.0031180754
72	0xbd8ab916	-0.067735836
73	0xbc664640	-0.014054835
74	0x3cd7eff4	0.026359536
75	0x3c4938a8	0.012281574
76	0xbd94e6fa	-0.07270618
77	0x3b1bd960	0.0023780689
78	0xbb84ebd0	-0.0040564314
79	0xbcfeafcc	-0.031089686
80	0xbc0da8d8	-0.0086462125
81	0x3be4c440	0.0069814026
82	0xbd97ad62	-0.07406117
83	0x3ccb5110	0.024818927

fc3.weight f4 [10, 84]
0	0xbd4d078e	-0.050056033
1	0xbd14a692	-0.036291666
2	0x3d6fc522	0.05853761
3	0xbd6379f8	-0.05553624
4	0xbc4ef7b0	-0.0126322955
5	0xbd801bbe	-0.062552914
6	0xbd091ef0	-0.03347677
7	0xbdbde34e	-0.092718706
8	0x3cb9233c	0.022599809
9	0xbdb9f162	-0.09079243
10	0xbc66e698	-0.014093064
11	0x3d99e9cf	0.075152986
12	0xbb6146e0	-0.003437452
13	0x3d9b203d	0.07574508
14	0x3cd0571c	0.025432162
15	0x3d935091	0.07193101
16	0xbd27082a	-0.04077927
17	0xbb3b9d20	-0.002862759
18	0xbd496f93	-0.04917867
19	0x3c5527f0	0.01301001
20	0x3dad67c5	0.08467058
21	0x3d6ab0be	0.05729746
22	0xbd133f1c	-0.035948858
23	0x3d812737	0.06306308
24	0x3cb16b1c	0.021657519
25	0x3db26385	0.08710388
26	0x3dd9ff0b	0.10644349
27	0x3dcd549b	0.10025903
28	0x3c9ff1f4	0.019524552
29	0xbd42077e	-0.047370426
30	0xbdcb1af4	-0.0991725
31	0xbdbec21c	-0.09314367
32	0x3db542d5	0.08850638
33	0x3d9edbe3	0.07756784
34	0x3d41285a	0.047157623
35	0xbb7e5840	-0.0038809925
36	0xbd1aef10	-0.037825644
37	0x3dc69f69	0.09698374
38	0xbd6cc34a	-0.05780343
39	0xbcc613ac	-0.024179302
40	0xbd0aedc8	-0.033918172
41	0xbd87e88f	-0.06636154
42	0x3d82d57b	0.063883744
43	0x3d02ed7a	0.031964757
44	0xbdaa16c6	-0.08305125
45	0x3d824b27	0.063619904
46	0xbd017382	-0.031604297
47	0xbd5e0b98	-0.054210275
48	0xbddaf4b8	-0.10691208
49	0x3dd94473	0.10608759
50	0xbc8993f4	-0.016794182
51	0xbdd448cb	-0.10365447
52	0x3bb16ff0	0.0054149553
53	0x3cbe0884	0.02319742
54	0xbd42f272	-0.047594495
55	0xbdb61e00	-0.08892441
56	0x3d5cdcf2	0.053921647
57	0x3d6d08a2	0.05786956
58	0xbddce9fc	-0.107868165
59	0xbd71a598	-0.058995813
60	0xbc838088	-0.0160525
61	0x3d8977ad	0.067122795
62	0x3da8bbfb	0.082389794
63	0xbdcf12e9	-0.10111029
64	0x3c9e9ae4	0.019360967
65	0x3d1a4d32	0.037671275
66	0xbda36d85	-0.079798736
67	0x3cd66064	0.02616901
68	0xbd78f8a5	-0.060784
69	0xbce4263c	-0.027850263
70	0xbd5ba4d5	-0.053623993
71	0xbd21b39c	-0.03947793
72	0x3c634b40	0.0138729215
73	0x3dbca1df	0.09210562
74	0xbc8c7b34	-0.017148592
75	0xbd45120e	-0.04811292
76	0xbcded148	-0.027199402
77	0x3d24eaa2	0.040262826
78	0x3cb94724	0.02261693
79	0xbd7d9e23	-0.06191839
80	0x3ddb4971	0.10707367
81	0xbd9b19ac	-0.07573256
82	0xbd1296a6	-0.0357882
83	0xbc675ae8	-0.014120795
84	0xbdb985e0	-0.09058738
85	0x3dc88b9f	0.097922556
86	0xbdafbb6b	-0.08580669
87	0xbd847cba	-0.06469102
88	0xbdd58427	-0.10425597
89	0x3dd19f15	0.102354206
90	0x3bfe0fa0	0.0077533275
91	0x3db94c07	0.09047704
92	0x3c3ca5e8	0.0115141645
93	0xbd76660d	-0.060155917
94	0x3d080d72	0.033215947
95	0x3da4e281	0.08051015
96	0x3c1136e8	0.008863188
97	0xbd18c98e	-0.037301593
98	0x3d27311e	0.040818326
99	0x3d3f99d6	0.04677757
100	0x3dd5b6d3	0.104352616
101	0xbdcb10e6	-0.099153325
102	0xbdb860eb	-0.09002861
103	0xbd2e9ef2	-0.04263205
104	0xbd6732dc	-0.056444988
105	0xbd91c194	-0.07117
106	0xbc1a5fb0	-0.009422228
107	0x3c041ee8	0.008064009
108	0xbd77e2e2	-0.060519107
109	0xbcc9bab0	-0.024625152
110	0xbd0aa74c	-0.033850953
111	0xba2bc080	-0.0006551817
112	0xbd9a2882	-0.075272575
113	0xbd837d84	-0.064204246
114	0x3d2890de	0.04115378
115	0x3dc7ea05	0.097614326
116	0xbd84951a	-0.06473751
117	0xbdc5fa1f	-0.096668474
118	0x3d13ad9a	0.03605423
119	0xbd841018	-0.06448382
120	0xbd353d46	-0.044247888
121	0x3cac57a4	0.021037884
122	0x3db7007b	0.089356385
123	0xbcb6c980	-0.02231288
124	0xbd9e664c	-0.07734355
125	0x3da52595	0.08063809
126	0xbdd8b646	-0.10581641
127	0x3c2ab728	0.010419644
128	0x3d69ad02	0.05704976
129	0x3d6a919a	0.057267763
130	0x3dc8a15d	0.097964026
131	0xbcbff1e0	-0.023430765
132	0xbd6fbcd7	-0.0585297
133	0xbc0b9318	-0.008518957
134	0xbd9ab009	-0.07553107
135	0x3dd857db	0.10563632
136	0xbd4a5f15	-0.049407084
137	0xba854900	-0.001016885
138	0xbdb4db3c	-0.08830878
139	0xbdd75d99	-0.10515899
140	0x3dbc1df3	0.091854
141	0x3d6a833e	0.05725407
142	0xbdd9e2e0	-0.10638976
143	0x3dc0974f	0.0940386
144	0xbdc71ace	-0.097219095
145	0x3d3a7902	0.04552556
146	0xbdbfe533	-0.09369888
147	0xbc3bb288	-0.011456139
148	0xbcdbb41c	-0.026819281
149	0x3d640aae	0.055674247
150	0x3b220ba0	0.0024726167
151	0x3d3d277a	0.046180226
152	0x3cecc304	0.028901584
153	0xbd8b3436	-0.06797068
154	0xbc6f9610	-0.01462318
155	0xbd02f7f0	-0.031974733
156	0x3c6a0780	0.014284015
157	0xbbac6ab0	-0.0052617416
158	0x3c4cb9e0	0.012495488
159	0x3d3cd5f2	0.04610247
160	0x3d3e7c6e	0.046505384
161	0xbbd32e60	-0.0064447373
162	0x3c8d4c44	0.01724828
163	0x3db57957	0.08861034
164	0x3ce9baa4	0.02853138
165	0xbd0f400c	-0.03497319
166	0x3cd54d74	0.02603791
167	0x3d4bde56	0.049772583
168	0xbdc1f4cf	-0.09470522
169	0x3dda95ab	0.10673078
170	0x3d205e0e	0.039152198
171	0xbd81de58	-0.06341237
172	0x3dbe7831	0.093002684
173	0xbd747e09	-0.05969051
174	0x3baff840	0.00537017
175	0xbdddc458	-0.10828465
176	0x3dcf5893	0.10124316
177	0x3d1d8686	0.03845837
178	0x3db7a67f	0.089673035
179	0x3da09aa1	0.07841993
180	0x3d4c6d5e	0.04990899
181	0xbdc97963	-0.09837606
182	0x3dae2099	0.08502311
183	0x3db1226b	0.08649143
184	0x3da9cf89	0.08291537
185	0x3d3a4ee6	0.0454854
186	0xbd2e4aa6	-0.04255166
187	0xbdafddd6	-0.08587234
188	0xbd92c4c4	-0.07166436
189	0xbd9f2d70	-0.077723384
190	0xbb3e9420	-0.0029079989
191	0x3ddd52a5	0.10806779
192	0x3dae2f99	0.08505172
193	0x3d4ea16a	0.050446905
194	0x3ddb2b5b	0.10701629
195	0x3d2c6bc2	0.042094953
196	0x3b099a40	0.0020996481
197	0xbd7f9279	-0.062395547
198	0xbdac926e	-0.08426367
199	0x3dd6b92d	0.10484538
200	0xb8016800	-3.0852854e-05
201	0xbd1808c2	-0.037117727
202	0xbc5ea448	-0.013588972
203	0x3cb12614	0.021624602
204	0x3dd65047	0.104645304
205	0x3d914fdd	0.07095311
206	0x3db48c69	0.088158436
207	0x3dc2545b	0.09488746
208	0x3d90c913	0.07069602
209	0xbc2d8058	-0.010589682
210	0x3dad1ae7	0.08452397
211	0xbd7c2b1a	-0.061564542
212	0x3ccadbfc	0.0247631
213	0x3c7489d8	0.014925443
214	0xbd84b4ac	-0.06479773
215	0x3c2e7970	0.01064907
216	0xbccbc280	-0.024873018
217	0x3dbf0dd3	0.09328809
218	0x3db76723	0.08955219
219	0xbd8c12dc	-0.06839535
220	0x3bfbd280	0.0076850057
221	0x3d2bcf82	0.04194594
222	0x3d415a8a	0.047205485
223	0x3dab0001	0.0834961
224	0x3c3256a0	0.010884911
225	0x3d02e5b6	0.03195735
226	0x3d9b510d	0.075838186
227	0x3d2cf7f6	0.04222866
228	0x3ddd4b7f	0.10805415
229	0x3bb8c050	0.00563816
230	0xbbe20f60	-0.0068988055
231	0x3d4b3abe	0.049616568
232	0xbd45fa9f	-0.048334714
233	0xbd2055ca	-0.039144315
234	0x3dd2c0d5	0.10290686
235	0xbd228be6	-0.0396842
236	0xbbbf8ac0	-0.0058453977
237	0x3d4e69d6	0.0503939
238	0xbd79947f	-0.060932633
239	0x3c55e690	0.013055459
240	0xbd97e7c4	-0.07417253
241	0xbd84f434	-0.064918905
242	0xbc225ac0	-0.009909332
243	0x3d65e2d2	0.056124516
244	0x3d299efa	0.041411377
245	0x3dcbb01f	0.09945702
246	0x3c5dffd8	0.013549767
247	0x3dab7b37	0.08373111
248	0x3c942a2c	0.018086515
249	0x3da33485	0.07969002
250	0x3dca9095	0.09890858
251	0x3d81b66b	0.063336216
252	0x3d52529e	0.05134832
253	0xbdde0093	-0.10839953
254	0x3dbcdb2d	0.09221492
255	0xbd64963d	-0.05580734

fc3.bias f4 [10]
0	0x3c5c5478	0.013447873
1	0xbc4c6f88	-0.012477763
2	0xbc38be60	-0.011275858
3	0x3d7a86b6	0.061163627
4	0xbd41a082	-0.047272213
5	0x3d58d362	0.052935965
6	0x3d779df2	0.060453363
7	0x3d97e755	0.0741717
8	0xbd6220b8	-0.055206984
9	0x3d1e54ba	0.03865502
