models/conv_net.onnx (onnx, 251478 bytes, 10 tensors)

conv1.weight f4 [6, 3, 5, 5]
00000000: 8033 d0bc dcb5 b63d 1e48 873d 21f8 7abd
00000010: 1bb0 b4bd e0d6 9b3c d03d b73c 3871 d93d
00000020: 5e70 c0bd b6a4 05bd 622b d63d d793 e9bd
00000030: b8e8 2dbd 20d2 7ebc 80ee 113a 689e 57bd
00000040: aceb c63d 50db 67bc 9818 bb3d 3cb5 203d
00000050: aa1a ae3d 426b 93bd 28af c53d 3e5b 55bd
00000060: a40a d93d 75a0 dfbd 7cf6 6abd 76b2 bfbd
00000070: aa63 ac3d 78e1 8a3d 48c0 973d 4b5d d1bd
00000080: c2c7 a33d d05f 143c c0b3 313d d661 c63d
00000090: e0a0 c43c 848b 633d fc63 acbd d394 99bd
000000a0: 98da 80bc 00e7 513a f8b8 963c 18a4 c53d
000000b0: 3e68 c2bd 756d 9bbd 803d e63c 78e1 d33d
000000c0: a4f3 4a3d 2e0f e9bd f02b b93d 18fc 893c
000000d0: f032 973c 5f40 80bd 1413 ec3d 58ad 1f3d
000000e0: 80d7 15bd b0eb a3bb fb78 c6bd fcd4 f2bc
000000f0: 90dc 19bc b8dd 65bd c0ae 843c 6236 bdbd
00000100: 50d4 cebb 02f2 ac3d 98fc 1e3d e59b d3bd
00000110: d066 cabc b8f7 7a3d 74e2 b2bd 9a02 c1bd
00000120: 4098 d1bd 22df 903d c836 1d3d 9020 433c
00000130: 6c2b efbc 90fa bd3c c088 9e3d 8436 c4bc
00000140: 8817 193d c8e0 45bd 9a57 803d ba41 803d
00000150: 24c4 34bd da03 dc3d df15 99bd a0f4 23bd
00000160: 7c59 b6bc 989c a33c c006 413d 6660 d13d
00000170: e058 81bb c849 d63d e185 b1bd 3cd7 a9bc
00000180: b6d4 a03d b446 aebd 1a53 4bbd 00f0 9fbd
00000190: de1c e33d e012 513b 80d0 c6bd 286d c03c
000001a0: 1076 8c3c 1cc9 adbd 701c 873d c066 9fbb
000001b0: 59d0 6cbd 203a 5ebc 6425 b93d 6812 3bbd
000001c0: b896 c7bd 7cc8 be3d fc20 c33d 2889 c53c
000001d0: 8862 9fbd e808 83bd f082 22bd 849e 553d
000001e0: 9c90 c9bd 2a2c 75bd 4096 edba f22a cc3d
000001f0: c899 45bd 8224 e03d 2986 5cbd b63b a53d
00000200: cccc aa3d 50cd f73c 6ae5 1abd 019d cfbd
00000210: 04c4 2ebd 18c0 54bd 80aa 88bd 6c4c 6f3d
00000220: 60b9 6d3c ec74 6a3d 0778 b0bd 1c59 2e3d
00000230: f8e7 86bd c89d 8a3d 41ac aebd a88f cbbd
00000240: 5a2f 9dbd b68c 48bd ec70 e9bc 1871 3bbc
00000250: e633 e9bd 0c29 c23d 6045 3abc a4ee 2cbd
00000260: 8020 173d 9673 df3d c89e aebd b084 9f3d
00000270: 7040 453d d200 d13d 0c3c 6b3d 0055 1abd
00000280: 2093 863d e82b b13d a688 a0bd 72df b2bd
00000290: 2cf3 4e3d af2f d6bd a054 71bc eca1 8cbd
000002a0: 9a14 ea3d 4aa0 90bd 8463 04bd b0c2 c7bb
000002b0: 5047 45bd 20d8 653b 2067 2bbc ce7a df3d
000002c0: 321b b03d f8b1 ad3d 5499 44bd 5f75 a1bd
000002d0: 14f4 493d beb0 c5bd 9830 a8bc d8fd e33d
000002e0: 3a7d c0bd c0f9 563c dcef 9c3d 5cc5 5f3d
000002f0: 7686 d8bd 0ce3 e03d a4da 073d 80f9 9ebc
00000300: 3eb9 8b3d 5cd8 d83d c801 23bc d26c bc3d
00000310: cc3e bcbd c6a1 d13d 7c70 e63d 54ac 873d
00000320: 705c 8a3d 683a d1bd b2ee c9bd a061 75bc
00000330: b054 693d 7426 4a3d d232 bf3d a83e 833d
00000340: 8383 cdbd 92e5 e5bd 9116 b9bd 47f0 e3bd
00000350: 50f8 d83c b0c1 b63d c8a6 8ebd b065 1b3d
00000360: aef2 87bd 88a6 b23c e495 8abc 603f 0abb
00000370: 8ec1 953d e13f 8dbd 0085 5fbb 1070 ab3b
00000380: 704e 05bd 006a f63c 946c 163d 9acf e23d
00000390: 109f b8bd 8061 2f3d 1475 a63d 9692 3abd
000003a0: a463 c1bc aac0 a33d 104b eabb 9ef3 b03d
000003b0: 48fb cebd 6d29 84bd e0f5 143c 508b a43d
000003c0: 3e9d 28bd ecc3 603d f8ae 7f3d ea14 ea3d
000003d0: 4045 fcbb 8823 01bc 104b a63b 842b e2bc
000003e0: d01e de3c 5c51 4b3d 88d3 e93d 54e2 233d
000003f0: 422a d13d caf2 52bd 6c3f 043d c655 03bd
-0.025415182 0.08921406 0.06605552 -0.06127179 -0.08822652 0.019023359 0.022368342 0.10617298
-0.09396432 -0.032627784 0.10457493 -0.11405151 -0.042458266 -0.015553027 0.00055668503 -0.052641302
0.097129196 -0.014151409 0.0913555 0.03923534 0.085011795 -0.07198192 0.09652549 -0.05208897
0.10597733 -0.109192766 -0.057363972 -0.093602106 0.08417447 0.06781286 0.074097216 -0.10222872
0.07997085 0.009056047 0.043384314 0.096866295 0.024002492 0.055552974 -0.08417508 -0.07499089
-0.015729234 0.0008007139 0.018398747 0.09650439 -0.09492539 -0.07589237 0.028105497 0.10345739
0.04954876 -0.113798484 0.090415835 0.01684384 0.018456906 -0.06262278 0.11527076 0.038983673
-0.03658247 -0.0050024614 -0.09691044 -0.029642574 -0.009390965 -0.05611965 0.016196609 -0.09238888
-0.0063119307 0.08444597 0.03881511 -0.10332469 -0.024707228 0.0612714 -0.08734599 -0.09424324
-0.102341175 0.07073809 0.03838232 0.011909619 -0.02919551 0.023190767 0.07740927 -0.023951776
0.037375957 -0.04831007 0.06266709 0.06262536 -0.044132367 0.10742922 -0.07474875 -0.040028214
-0.022259466 0.01997213 0.047125578 0.10223465 -0.0039473623 0.104632914 -0.086681135 -0.020732515
0.078530714 -0.08509579 -0.0496398 -0.07809448 0.1108949 0.003190212 -0.09707737 0.02348955
0.01714614 -0.08485624 0.06597221 -0.0048645437 -0.057815883 -0.013563663 0.09040335 -0.04567185
-0.09745544 0.09315583 0.09527776 0.024113253 -0.07782465 -0.06398183 -0.039675653 0.052153125
-0.09842035 -0.05985657 -0.0018126443 0.09969129 -0.04824236 0.10944463 -0.053838883 0.080680296
0.08339843 0.030249268 -0.037816443 -0.10137368 -0.042667404 -0.051941007 -0.06673145 0.05842249
0.014509529 0.05724041 -0.086166434 0.04256545 -0.06587213 0.06768376 -0.085289486 -0.0993951
-0.07675047 -0.048962317 -0.028496228 -0.011440538 -0.11386852 0.09480485 -0.011369079 -0.042219773
0.03689623 0.10910718 -0.08526379 0.0778898 0.048157156 0.102052346 0.057430312 -0.03767872
0.065710306 0.086509526 -0.078385636 -0.08734025 0.050524876 -0.10458314 -0.014729649 -0.06866822
0.11429711 -0.07061823 -0.032321468 -0.0060962066 -0.048163712 0.0035071447 -0.010461599 0.10912095
0.08598937 0.084812105 -0.047997788 -0.07883715 0.049305037 -0.096528515 -0.020530984 0.11132401
-0.09398885 0.0131210685 0.07662937 0.054631576 -0.105725214 0.10980806 0.033167496 -0.01940608
0.068224415 0.10588142 -0.009949155 0.09200443 -0.09191665 0.10235934 0.112519234 0.06624666
0.06755912 -0.10216218 -0.09859981 -0.014976889 0.05696553 0.049353078 0.09335865 0.06408435
-0.100348495 -0.11225428 -0.09037507 -0.11129814 0.026485592 0.08923662 -0.06965405 0.037938774
-0.06638084 0.021807924 -0.016917177 -0.0021094903 0.07312308 -0.068969496 -0.0034106374 0.0052318648
-0.032545507 0.030079842 0.036724642 0.11074753 -0.09014714 0.042817593 0.081278 -0.04554995
-0.023607083 0.07995732 -0.0071500614 0.08640216 -0.10106522 -0.06453214 0.009091824 0.08034384
-0.041165583 0.054874346 0.062422723 0.1142977 -0.007698685 -0.0078820065 0.005074866 -0.02760864
0.027114302 0.049638137 0.114172995 0.040010765 0.10213138 -0.051501073 0.032287046 -0.03206422

conv1.bias f4 [6]
00000000: a414 84bc 1065 f03c f064 cc3c 342e 52bd
00000010: d043 c33b 2850 8b3d
-0.016123123 0.029345065 0.024950475 -0.051313594 0.0059590116 0.06802398

conv2.weight f4 [16, 6, 5, 5]
00000000: 3419 37bd 2c2a 523d 2cd0 783d 40d4 633b
00000010: e05f 87bd 4aca 7dbd 76f9 31bd 9c1a 673d
00000020: c857 9fbd 7ec5 933d f64e a4bd 48b5 863c
00000030: 70f5 8b3d c602 04bd d0d9 a83b 94da fa3c
00000040: a803 903d 668e 2d3d c05a 3dbc 24e4 773d
00000050: 69f0 36bd 746b bd3c 5ec9 ccbc 9e06 2f3d
00000060: 964c 8c3d 25bc 88bd d015 ed3b ccf3 2a3d
00000070: 0cf9 a33c c927 36bd 72d2 a3bd 2e32 d1bc
00000080: a851 6c3d ba4a f8bc 7aa2 993d 6c76 0e3d
00000090: cc20 bf3c fcb2 993d 968d 18bd 98a6 403d
000000a0: eb0c 27bd 0a02 41bd 6090 3a3d f4ff 5a3d
000000b0: a06c 913b a01b 54bb 18ea 1f3c 40ee 98ba
000000c0: ecd1 54bd d45d 583d 88e2 21bd 40db 96bc
000000d0: b31d 11bd d6ce 813d a8cb 56bd e0aa 0e3c
000000e0: ff0d 2abd b8c9 783c 6018 393d acd5 3c3d
000000f0: b85b 373d 6c5e e7bc cafa 853d 6007 9dbd
00000100: 86ff 883d f655 3bbd ecd7 943d e04d b73b
00000110: e0f9 4d3d 4048 653d fced 14bd 06dc 34bd
00000120: 10cd e3bb 8bac 72bd 1429 23bd e02e 9d3d
00000130: 9042 0b3d d224 313d fc85 aa3c 4e3e 113d
00000140: 5c4b 403d 9084 ba3b 2100 2bbd 1577 9ebd
00000150: 2076 a83b f09e 47bc 46cb 0f3d 4278 9b3d
00000160: 1aa1 89bd 2c29 ca3c 2c7f f63c 7c97 313d
00000170: 7c16 523d 3897 7cbc a43b 1dbd 8430 5cbd
00000180: e7e3 9abd 5a75 47bd 5074 5d3d 74b0 a93c
00000190: 78a6 6a3d e643 8abd 702e 45bc c410 2b3d
000001a0: 1cb8 a4bc b061 41bc 987c 7c3d 4ded 76bd
000001b0: fc70 cb3c d08a d03b 68d3 483c 80fa 283a
000001c0: 80ad 86bd 60df 8b3d a209 313d d6fb 973d
000001d0: fccd 323d b864 4b3d 00c0 7b3b 4cae 6a3d
000001e0: d84b 973d 616f 3ebd 40cd 98bc deb4 06bd
000001f0: b867 2abd 3694 7ebd ac10 a4bd eeac 2a3d
00000200: fa3e 0e3d 80e8 64bb 60bc febb 3aed 953d
00000210: 46ba 04bd 86af a2bd e0a7 4d3c daea 3dbd
00000220: 7c75 fe3c 3ade 5bbd 7cda 1c3d 0a2e 863d
00000230: 04de 293d d836 3c3c 8a87 933d bc88 a4bd
00000240: 82f2 4ebd 3075 2ebc 00fc 68ba 382c 80bd
00000250: 4c3d cc3c 9c59 a93c 8604 90bd 3869 5bbc
00000260: 50a1 e73b d993 9ebd aaae 1dbd 79e9 33bd
00000270: 307e 98bb a0bb e1bb aac2 47bd ae9a 8f3d
00000280: 087c 8ebc a043 933c 904f 333c aa42 4ebd
00000290: 78ce 99bd bc25 a43c 7a15 5ebd e495 843c
000002a0: 24c9 dc3c 7d22 7dbd 69a6 27bd 90d7 443c
000002b0: e8af 963d 8a72 213d 5402 f33c 9edd 933d
000002c0: 2e70 32bd 0ea1 0a3d a020 2e3d 32d7 ffbc
000002d0: c8a8 27bc a00f 463b 187d 60bd 6099 733d
000002e0: 1add 0e3d 8315 27bd 5454 583d 4400 6c3d
000002f0: 82ca 863d 9c2c cc3c ff2d 7bbd ac2e 7d3d
00000300: a8e2 a93c 5309 11bd b8ba 773d 10be 203d
00000310: 3889 1d3c 4e2b 083d f036 393d 8ea4 133d
00000320: cfbe 7ebd e8e8 793c d4fe 65bd c281 07bd
00000330: a8be d43c e4c9 263d 1484 87bd e883 45bc
00000340: b700 31bd 603d 9abb 24b7 213d 289c 3dbc
00000350: 7da3 a4bd da8f 203d ca19 873d 20ae cd3c
00000360: a820 443c d429 8bbd 3800 3ebc 20aa 07bc
00000370: 6c20 953c c00e f83a c850 a6bd ec7d 64bd
00000380: 5844 753c c888 1e3c 5814 d5bc fcec 6a3d
00000390: 1c12 5e3d 77bc 15bd 0088 2eb8 57e5 3dbd
000003a0: e899 d4bc bf6d 8bbd fc7e 04bd 0aa1 07bd
000003b0: b0eb 92bd 1a36 88bd 38c8 633d 6cb4 d63c
000003c0: 8a2d 0dbd 10cd c3bb 8acc 60bd b001 a23b
000003d0: fc23 94bd dfec 85bd 8461 433d 80b6 943c
000003e0: 64d8 963c 28c3 34bc c672 8b3d d498 8d3d
000003f0: 2d68 7dbd 4066 933d 5020 97bd 9002 8fbb
-0.04470177 0.05130975 0.060745403 0.0034763962 -0.066100836 -0.061960496 -0.043450795 0.05642186
-0.07780415 0.07215403 -0.08022873 0.016443864 0.06833923 -0.032229207 0.0051529184 0.030621804
0.070319474 0.04237213 -0.011557281 0.060520306 -0.044662867 0.023122527 -0.024998363 0.04273092
0.06850545 -0.06676511 0.0072352663 0.04173641 0.020016216 -0.044471536 -0.07999124 -0.025536623
0.05769506 -0.03030907 0.07501693 0.034780905 0.023331068 0.07504842 -0.037244402 0.047033876
-0.040783804 -0.047121085 0.045547843 0.053466752 0.004437998 -0.0032365099 0.009760402 -0.0011667684
-0.05195801 0.052823856 -0.039522678 -0.018415093 -0.035428714 0.06338279 -0.052440315 0.008707732
-0.041517254 0.015184812 0.04518926 0.04610221 0.044765204 -0.028243266 0.06541975 -0.07667422
0.06689362 -0.045736276 0.07267746 0.005594 0.050287127 0.055977106 -0.036359772 -0.044155143
-0.0069519356 -0.05924658 -0.039834097 0.07674956 0.033999026 0.043248005 0.020815842 0.03545981
0.04694687 0.005692072 -0.04174817 -0.07737557 0.0051410347 -0.01218389 0.035105966 0.07591297
-0.06720181 0.024677835 0.030089937 0.043357357 0.051290974 -0.015416913 -0.038386956 -0.053757206
-0.07563 -0.0486959 0.054066002 0.020714022 0.057287663 -0.06751232 -0.012034997 0.041764036
-0.020107321 -0.011803076 0.06164226 -0.0602849 0.024834149 0.006364204 0.012257434 0.0006446019
-0.06576061 0.06829715 0.043222077 0.07421081 0.043653473 0.0496566 0.0038414001 0.05729513
0.07387513 -0.046492938 -0.018652558 -0.032887332 -0.04160282 -0.062153064 -0.080109924 0.041668825
0.034728028 -0.003492862 -0.007773921 0.07320638 -0.032404207 -0.07943635 0.012552232 -0.04636655
0.03106188 -0.05367873 0.0382943 0.0655175 0.041471496 0.011487685 0.072035864 -0.080338925
-0.050524242 -0.010648057 -0.00088876486 -0.06258434 0.024931572 0.020672612 -0.07032113 -0.013391785
0.0070687905 -0.077430435 -0.03849665 -0.04392383 -0.0046537146 -0.0068888217 -0.04876963 0.07011925
-0.017393127 0.017976582 0.010944262 -0.050356545 -0.07510084 0.020037524 -0.0542197 0.016184755
0.02695138 -0.06180047 -0.040930185 0.012014285 0.0735777 0.039415874 0.029664196 0.072200045
-0.043564014 0.033845 0.042511582 -0.031230543 -0.010233112 0.0030221716 -0.0548068 0.05947244
0.034878828 -0.040792 0.052814797 0.05761744 0.06581594 0.024923615 -0.061323162 0.061812088
0.020737961 -0.035409283 0.060480803 0.039243758 0.009615235 0.033244424 0.045218408 0.036045603
-0.062193688 0.015253283 -0.056151226 -0.03308273 0.025969818 0.04071988 -0.06616989 -0.012055375
-0.043213572 -0.0047070235 0.039481297 -0.011572875 -0.080389954 0.039199688 0.06596716 0.025107443
0.0119706765 -0.067950875 -0.011596732 -0.008280307 0.018203937 0.0018925294 -0.081208766 -0.05578415
0.014969908 0.009676166 -0.026010677 0.057354912 0.05421649 -0.036556687 -4.1611493e-05 -0.046361294
-0.025952294 -0.06808042 -0.032347664 -0.033112563 -0.0717386 -0.06650944 0.055610865 0.026209079
-0.034467258 -0.005975373 -0.054882564 0.004944049 -0.07233426 -0.0653932 0.04770042 0.018153429
0.01841373 -0.011032857 0.06809001 0.06913915 -0.061866928 0.07197237 -0.0737921 -0.004364319

conv2.bias f4 [16]
00000000: 82ac 7ebd 00c5 c0b9 18f8 313c c037 33bc
00000010: 90f2 653d 93d8 82bd 1c0c 9a3d 2882 8c3d
00000020: c06e 823d 6e66 8b3d c4cb 5dbd 8e07 8dbd
00000030: 146d 7b3d 0c9b a43c 1083 e23c f420 533d
-0.062176235 -0.0003676787 0.010862373 -0.010938585 0.05613953 -0.063889645 0.07521841 0.06860763
0.0636878 0.06806646 -0.054149404 -0.068862066 0.061383322 0.020093463 0.027650386 0.0515451

fc1.weight f4 [120, 400]
00000000: 9a0c a83c f022 f6bb 98a7 bf3b 0044 1ebb
00000010: c0fb 79bc 6882 363c 4976 123d 36c9 a43c
00000020: 5d48 393d 98bd 6cbc c3dc 40bd 5dc2 dbbc
00000030: 05d2 35bd ea45 1cbd e02e 8ebc 00bc 2cbb
00000040: 0328 29bd 06a9 f03c 34b0 7a3c 9110 083d
00000050: 005a 38bb 986a a13b ec58 393c f51a 463d
00000060: 584a 4b3c 4581 253d 60e8 ebba d9ed 393d
00000070: aa3f 47bd d058 923b cd68 35bd b2f4 3ebd
00000080: 275f babc c874 15bd 11e1 303d ae62 b83c
00000090: 2536 183d b9f1 203d c04b b13b 627e 9e3c
000000a0: 66e9 c33c 27cb d2bc 3772 bbbc 290b 243d
000000b0: 779f 433d da6d 35bd 8357 eebc ac3f 28bc
000000c0: 877e 033d 096e 3c3d 92ab a33c 019f 483d
000000d0: 68d2 e2bb fdc8 f9bc a0cb 6bbc ac9a 1b3c
000000e0: 65a2 43bd 185e 9cbb c48f 84bc 7395 443d
000000f0: b20f 8c3c aaab bebc 283b 483c 8827 143c
00000100: e8d3 01bd 8a2b 813c 5aa9 adbc 1bf3 393d
00000110: 3e99 a43c 8319 4abd 85cb 173d e81b 1bbd
00000120: 2736 4c3d 3b08 163d 4aad e03c 4c8e 09bd
00000130: 914e 3d3d b8ad 63bc da6e 1abd b7de 0a3d
00000140: 0243 35bd 0082 503a 70bf bd3b 6ea6 1abd
00000150: a95c 313d 4fea 3f3d 62e1 823c a6ef cd3c
00000160: 7308 11bd 0000 36ba 373b 2ebd d4f7 8ebc
00000170: 7811 3ebc 8dc4 e3bc 579d eebc a01c 95bc
00000180: e32e 0e3d 38ad 2fbd e8a9 f93b dce2 04bd
00000190: 3f62 3d3d 4877 12bc 16e5 23bd 1e58 1fbd
000001a0: c091 b0bc 496b 3b3d 3048 7a3b 7d3d f9bc
000001b0: d427 373c b4c9 513c 828b dc3c 624b cb3c
000001c0: e01e 003b d282 d93c bf67 40bd dd57 cbbc
000001d0: 3815 0ebc 9fbd 293d bd9d 44bd a27c 11bd
000001e0: 00e4 29bc 0bf3 2fbd 28f5 29bc 0447 573c
000001f0: 3041 a3bc 623b f13c 00dc 12ba c294 21bd
00000200: a33e babc 60c0 e5ba 30b8 fb3b d458 8bbc
00000210: 32ab cb3c 0ab0 85bc 7aaa d43c aaf7 98bc
00000220: 85a3 25bd 0f56 273d 66b0 09bd 80dd 8039
00000230: ddf9 01bd 8057 74bc 1813 36bd 5aa3 90bc
00000240: 3613 04bd f87c 2a3c 323c f93c f03a e03b
00000250: 7ac2 4abd 6c63 8ebc e82d 86bb 2322 283d
00000260: b43f 01bd 239d d4bc 3e25 b13c 1d9e fdbc
00000270: c35d 9cbc 2970 3a3d d884 0abd ea53 8a3c
00000280: 464c ba3c d8b7 a73b fe0e b63c ca70 e2bc
00000290: d0d9 92bc f239 40bd 90da f93b 8ccd 79bc
000002a0: 2168 1d3d 5039 e8bc 72b5 993c 8e83 893c
000002b0: 701e f8bb 6025 29bc 32fb 29bd ca3d a73c
000002c0: f222 9f3c dd22 3a3d bd2c 3abd b6eb 0bbd
000002d0: f0c6 c4bc a839 c2bb 809d bbb9 0cce 26bc
000002e0: 8c42 61bc 3664 04bd 6d09 0bbd e229 873c
000002f0: d00a 16bb 9862 a9bb 7e3d b83c ec78 12bc
00000300: e4d1 753c 267e 08bd 7dca 3bbd 50a4 023b
00000310: 570d 3a3d b202 973c 30bb d43b 4f3e 48bd
00000320: a86d 8c3b 410c 0d3d 2523 4b3d b8c2 31bc
00000330: 5d09 9abc 5e55 27bd 5025 cd3b b93b 1b3d
00000340: e12c 2f3d 36cd cd3c 4aed f2bc 1386 e2bc
00000350: 9995 1c3d c4dc 6d3c 00c0 55ba 1a13 f3bc
00000360: d059 363b 146e 05bc 91c7 393d a2e5 fb3c
00000370: 12c7 1abd b50d 2b3d 2f16 193d 94bf 0d3c
00000380: 1a91 db3c 0a66 883c 0ed0 a63c 3622 94bc
00000390: c04c 80ba b085 babc 1c98 603c 29fb 373d
000003a0: 426f f13c e2ef b83c b4e1 14bc 7c1d 663c
000003b0: 6015 4fbc b137 4b3d 11bc 1c3d 6efb 0fbd
000003c0: 8e1b 8d3c aa3a 853c c02c d2bb bc07 6a3c
000003d0: 8056 43bd 0833 3fbc 4004 4b3c be43 c33c
000003e0: e496 6d3c caf3 9ebc 1010 983b 27f6 b2bc
000003f0: 5656 8abc 9de9 1cbd d75f 383d a04e 3d3c
0.020513821 -0.007511489 0.005848836 -0.0024149418 -0.015257776 0.01113949 0.035757337 0.020115476
0.045235027 -0.0144495 -0.047085535 -0.026826078 -0.044389743 -0.038152613 -0.017356336 -0.0026357174
-0.041297924 0.029377472 0.015300799 0.033218924 -0.0028129816 0.004926037 0.0113127045 0.048365552
0.012407862 0.040406484 -0.001799833 0.045392845 -0.0486447 0.0044661537 -0.0442894 -0.04662008
-0.02275045 -0.036488324 0.04318339 0.022507992 0.03716101 0.039293025 0.0054106414 0.019347373
0.023915004 -0.025731636 -0.02288161 0.040049706 0.0477595 -0.044294216 -0.029094463 -0.010269087
0.032103088 0.046003375 0.019979272 0.048979763 -0.006922055 -0.030491346 -0.01439181 0.009497326
-0.047762293 -0.004771959 -0.016181834 0.04799409 0.017097328 -0.023275215 0.012221135 0.009042628
-0.03169623 0.015767831 -0.021198917 0.04539786 0.020092603 -0.049340736 0.037059326 -0.03786841
0.04985633 0.036628943 0.02742638 -0.03358297 0.046217505 -0.013896398 -0.037703373 0.033903804
-0.044253357 0.0007953942 0.0057906434 -0.037756376 0.04330126 0.046854313 0.015976612 0.025138687
-0.03540845 -0.0006942749 -0.04253694 -0.017452158 -0.011600845 -0.027803684 -0.02912776 -0.018202126
0.034712683 -0.042889804 0.0076191314 -0.032442912 0.046236273 -0.008939572 -0.040013395 -0.038902394
-0.021553874 0.045756612 0.003819 -0.030424828 0.011178929 0.012804437 0.026921991 0.024816219
0.0019549653 0.026551638 -0.04697394 -0.02482217 -0.008672051 0.041440602 -0.048001993 -0.03551925
-0.010369301 -0.042956393 -0.010373391 0.01313949 -0.019928545 0.029447261 -0.00056022406 -0.039448507
-0.022734946 -0.0017528646 0.007681869 -0.01701013 0.024861906 -0.016319294 0.025960196 -0.018672783
-0.040439148 0.040853556 -0.033615492 0.00024579093 -0.03173243 -0.01491344 -0.044451803 -0.017656017
-0.032244883 0.010405771 0.030424211 0.0068429634 -0.049501874 -0.017381392 -0.004094828 0.04104818
-0.031554893 -0.025953835 0.021624204 -0.030959183 -0.019087678 0.04551712 -0.033818096 0.016885716
0.022741448 0.0051183514 0.022223946 -0.027641673 -0.017926127 -0.04693026 0.0076249316 -0.01524676
0.038429383 -0.028347641 0.018763278 0.016786363 -0.007571988 -0.010323852 -0.041499324 0.020415206
0.019425843 0.045443404 -0.045452822 -0.03416034 -0.024020642 -0.0059272833 -0.00035784766 -0.010180961
-0.013748776 -0.03232213 -0.033944536 0.016499463 -0.0022894628 -0.005169224 0.02249026 -0.008939963
0.015003655 -0.03332343 -0.045847405 0.0019934364 0.045422878 0.018433902 0.006492041 -0.048887547
0.004285533 0.034435514 0.049594063 -0.010849647 -0.018803293 -0.040852897 0.0062605515 0.037898753
0.04276741 0.025122266 -0.029654164 -0.027651822 0.038228605 0.014517967 -0.00081539154 -0.029672194
0.0027824529 -0.00814392 0.045356337 0.030749146 -0.037787504 0.04176112 0.03737467 0.008651633
0.026802588 0.016650219 0.02036288 -0.01808272 -0.0009788498 -0.022768825 0.013708141 0.04491726
0.029471997 0.022575323 -0.009087015 0.014045116 -0.012639374 0.04961366 0.03826529 -0.03515189
0.017225053 0.016263325 -0.006414026 0.014284071 -0.047689915 -0.011669882 0.01239115 0.023836013
0.014501307 -0.019403357 0.0046405867 -0.02184589 -0.016886871 -0.03830873 0.045013275 0.01155439

fc1.bias f4 [120]
00000000: 8d26 afbc 503b 133b 0d38 363d 068c d93c
00000010: 4a47 c5bc 6cc4 31bc 8660 14bd bb76 4abd
00000020: ee40 21bd 635f 483d a9d6 2f3d 1592 173d
00000030: 14d5 28bc 5baa 23bd cab2 14bd e382 2dbd
00000040: b769 cbbc 70c3 cebc 7a1b f23c 5f40 063d
00000050: ca25 c1bc 5863 e53b 9dab 47bd 498a 153d
00000060: 5477 083c 921d c33c 5aed f93c 28fd 79bc
00000070: 5e69 d33c b0f1 00bd 60ea 4dbc bc4b 8abc
00000080: e37c 32bd 72ab ed3c 37d5 b6bc a76f 3abd
00000090: e61e 25bd 519c 483d 866d a83c 8fc9 363d
000000a0: 0030 68ba 3852 33bd 82dc 47bd f321 27bd
000000b0: 303a 36bb 1e37 e53c 686b 3f3c 7b93 32bd
000000c0: a859 833b e2ae ed3c 08e9 47bd 9a51 a53c
000000d0: 1a4c a83c ba3d 943c 08ef 40bc fbca 353d
000000e0: 6aef cb3c fe73 c53c 537f 3ebd d86b 49bd
000000f0: fab4 35bd a324 fdbc 3a1a e83c b479 1b3c
00000100: 2dee b6bc a6a7 a83c 9445 17bc 9051 a43b
00000110: 0c22 493c c828 28bc e3bf 45bd 3a1b e4bc
00000120: c6d4 af3c 30c4 493b 087b 2fbd 4728 a5bc
00000130: b3fc 243d 90e2 b43b 9af8 fa3c c704 b3bc
00000140: a0f2 7dbb beae e13c d25f ec3c ec64 2d3c
00000150: 108a e53b d597 213d 985e 5fbc 1673 f93c
00000160: 311e 253d 6f4f 313d 92c6 15bd 8079 323a
00000170: f00f cebb 971a b9bc 9725 c1bc 5127 363d
00000180: e0ce 113b a2f6 8a3c cddc cabc 8755 0a3d
00000190: 808a 6dbc 4772 d3bc 0015 bb3a e807 7dbc
000001a0: f110 223d 08f2 2bbd 9ea0 0cbd 021d a23c
000001b0: a0e2 7bbb 760a 28bd c19b 093d 96d2 28bd
000001c0: 8337 483d 2455 543c c266 ad3c 9ab6 d2bc
000001d0: f7cf 203d 0fa9 103d 6c93 6b3c 18ad c03b
-0.021380687 0.0022465773 0.044487048 0.026556026 -0.024081845 -0.010850053 -0.036224864 -0.049429636
-0.039368562 0.048919093 0.042929325 0.03700455 -0.010304708 -0.039957386 -0.03630332 -0.04236115
-0.024830682 -0.025239676 0.029554117 0.032776233 -0.02357759 0.007000368 -0.048747648 0.036508832
0.008329231 0.023817811 0.030508686 -0.015258111 0.025807079 -0.03148049 -0.012568086 -0.016881816
-0.043576133 0.029012416 -0.022318466 -0.045516636 -0.04031267 0.0489772 0.020560037 0.044625815
-0.000885725 -0.04377958 -0.048794277 -0.04080386 -0.0027805679 0.027980383 0.0116833225 -0.04359768
0.0040084906 0.029014055 -0.04880622 0.020180512 0.0205441 0.01809584 -0.0117757395 0.04438303
0.024894435 0.024103161 -0.046508145 -0.049175113 -0.044362046 -0.030901259 0.028332818 0.0094894655
-0.022330368 0.020587754 -0.009232897 0.005014606 0.012276184 -0.010263629 -0.0482787 -0.027845014
0.021463763 0.0030787103 -0.04284194 -0.020160807 0.040280055 0.0055201724 0.03063612 -0.021852864
-0.0038749352 0.027549144 0.028854284 0.010583144 0.0070049837 0.03945144 -0.013633393 0.030450385
0.040311996 0.043288644 -0.036566325 0.0006808266 -0.006288521 -0.022595687 -0.023577495 0.04447109
0.0022248551 0.016963307 -0.02476349 0.03377297 -0.014498353 -0.025811328 0.0014273226 -0.0154437795
0.039566938 -0.041978866 -0.034332864 0.019789223 -0.003843464 -0.0410256 0.033595804 -0.041216455
0.048881065 0.012959752 0.021167163 -0.025721837 0.03926083 0.035317477 0.01437841 0.0058800094

fc2.weight f4 [84, 120]
00000000: 08a0 513c 5c3d 4f3d 608a 75bc c84b a23d
00000010: d04e 28bd 7cc1 2a3d 7ef9 8a3d 88a1 95bd
00000020: f031 a7bc 5c9b 6a3d a445 88bd 2cae 8ebc
00000030: 5e06 b03d 52a6 f9bc aeaf 023d 8cee a3bc
00000040: e003 8d3d 6c04 75bd a045 233b 6f0e 2cbd
00000050: 742f 023d 94a4 473d 3cbc adbc cc43 8ebd
00000060: 5267 88bd 489a adbd f4a5 333d fe0a 833d
00000070: 4b87 8dbd c465 c8bc 38c8 4b3d 82af 93bd
00000080: b010 143c 6758 54bd 9827 a7bd 71f8 b1bd
00000090: 100c 143d 8415 5b3d d4ab 713d 7081 0b3d
000000a0: c974 9bbd 2c4d 2b3d c4ea bc3c 7801 733c
000000b0: fc76 c23c cdce 54bd 5630 80bd c0b3 aa3a
000000c0: f83d 3dbc 1010 8f3c 7088 803d 085a 57bd
000000d0: 80e2 0eba 89c5 1cbd aee9 843d 1fcb 4fbd
000000e0: ccc3 8f3d ae1c 75bd 367a b23d 403c ebba
000000f0: 3e79 9dbd 6309 a1bd 3026 7d3d 58ed 3b3d
00000100: e8c7 363c fe3a 85bd aa22 053d 801a 9c3d
00000110: 44b5 5fbd 98ea 80bc 58c9 68bc ec76 2b3d
00000120: 80d1 403c 6824 4a3d b0a6 d8bb 0848 4cbc
00000130: 7ce9 853d 7c8d ba3c 10c6 e33c 60e3 023c
00000140: 1878 51bc 1cd3 95bc 92cf 28bd e02b 6ebc
00000150: 2887 76bc 129b 89bd 5f11 acbd b01c 843b
00000160: c2a9 903d 5c4f 133d ea88 b13d e87e 2e3d
00000170: 5484 4d3d 51b8 16bd c0c4 eb3c 2059 623c
00000180: 58f2 83bc 9840 333c b7db b0bd 50a3 933d
00000190: 88ae 53bc 3c49 a13d d487 313d 5825 d6bc
000001a0: 80e6 1aba 2081 663c 94f1 693d e4bd 983d
000001b0: f451 503d ac6b b3bc 385d 3e3d 8c77 233d
000001c0: 2cb2 aa3c d7f6 3ebd 80a8 51ba fe97 b13d
000001d0: 7c43 5c3d 8851 b03d 872b 1dbd 942f 0b3d
000001e0: b77f a5bd b80a 49bc 8022 2c3d b0ef 953d
000001f0: 1dc6 b5bd b595 b4bd 5a9b 93bd 4fc0 54bd
00000200: 1e7c b6bd f858 f53c d80c b43d 50ec ae3d
00000210: a014 a83c 2883 b13d 96ad 00bd 85a0 3cbd
00000220: d403 893d 4431 7c3d d025 a5bb 70f9 84bc
00000230: 3eb0 9d3d 943a 363d bb3a 37bd 4757 0cbd
00000240: f625 79bd aa88 b83d a91f b8bd 7058 d5bb
00000250: 76dd ebbc 50c1 ef3b 1070 363c 2463 503d
00000260: 0822 4ebd e045 f33c e4b2 afbc 2801 733d
00000270: ce09 69bd 6407 f1bc 298b b5bd 0441 373d
00000280: d5ba 8abd f050 853d 3ef4 5cbd 6c66 1f3d
00000290: d0c3 9a3b 1acc 8abd e063 cabb 701a 933c
000002a0: 642a 533d ffd2 7dbd c6fe b23d 9489 343d
000002b0: 28d0 5f3d 10b0 1a3d 60f0 183d d4d6 9ebc
000002c0: 20d0 91bd 30bd 823d 629b a9bd a083 343d
000002d0: 2e99 b83d 9001 d1bb 0002 7f39 e2a4 4fbd
000002e0: 249c 92bc 4662 953d d396 b6bd 341f a93c
000002f0: 4615 ab3d 1830 25bd 4064 94bc 0006 66b9
00000300: d4a8 b3bd c8a5 193d c07f eb3a 12dc 45bd
00000310: c2f4 b0bd f07c 6f3d 9ea0 48bd 28a6 b5bd
00000320: ccf7 fb3c 68b9 023c 4d32 8fbd 6537 04bd
00000330: fea6 b73d f057 0b3d 702e 463d 443b eebc
00000340: a0d9 1fbb 40df a93d 7d2a 0bbd dc7a bf3c
00000350: b609 9a3d f251 953d 10de b63d 2841 243d
00000360: 2814 763d 7003 c1bc 34a6 783d 187d 8ebd
00000370: 2771 42bd a4e0 aa3d bb0e b5bd 40ff 0cbb
00000380: 7ea4 913d 8bd3 b8bd 8ca0 703d 34c1 0a3d
00000390: a2cd 17bd f005 4ebc fcef ae3d a0eb 90bd
000003a0: b03a e13c 1dd9 68bd 10cc b73d d0f6 a63c
000003b0: dd2e 4cbd dcf2 9c3d fb86 1fbd 12b3 a83d
000003c0: c0eb 703c a4a6 b93d 9849 6d3c 808d a5bc
000003d0: f4bd 1f3d 0856 493d 70ff a83d 3163 53bd
000003e0: 0aa6 73bd 5045 6f3c 92bc 7cbd 30bd c63b
000003f0: fc24 f1bc 18b6 a8bc 185a 09bc dbdf 60bd
0.012794502 0.050595626 -0.014986604 0.079246104 -0.041090786 0.041688427 0.06785868 -0.073062
-0.020409554 0.05727707 -0.06653908 -0.017417036 0.085949644 -0.030474816 0.031905822 -0.020011209
0.06885505 -0.05981867 0.0024913326 -0.042005952 0.031783536 0.04874094 -0.021207921 -0.06946525
-0.06660332 -0.084766924 0.043859437 0.06398581 -0.06910571 -0.024462588 0.04975149 -0.0721121
0.009037182 -0.05184212 -0.08161849 -0.086899646 0.036144316 0.053487316 0.05900176 0.034058988
-0.075906344 0.041821644 0.023061164 0.014831893 0.023738377 -0.051955033 -0.06259219 0.001302354
-0.011550419 0.017463714 0.062760234 -0.052576095 -0.0005450621 -0.03827432 0.06489883 -0.05073082
0.07019767 -0.059841804 0.08714716 -0.0017947033 -0.07689141 -0.078631185 0.061803997 0.045880646
0.01115606 -0.065053925 0.03250376 0.07622242 -0.054616228 -0.015736863 -0.01420816 0.04186146
0.011768699 0.049351126 -0.0066116676 -0.012468345 0.06538674 0.022772543 0.027804404 0.007988781
-0.01278498 -0.018289141 -0.04121358 -0.014536828 -0.015046872 -0.067190304 -0.08401751 0.00403174
0.07063629 0.035964355 0.086686924 0.042601496 0.050175026 -0.03679687 0.028780341 0.013815194
-0.01610677 0.010940693 -0.08635657 0.07208884 -0.012920029 0.078752965 0.043342426 -0.026140854
-0.0005908981 0.014068872 0.057115152 0.07458094 0.050859407 -0.021901928 0.04647562 0.03990893
0.020836912 -0.046622124 -0.0007997826 0.08671568 0.053775296 0.08609301 -0.03837159 0.03398092
-0.08081 -0.012270622 0.04202509 0.073211074 -0.08875678 -0.08817617 -0.07207365 -0.051941212
-0.08910392 0.02994965 0.08791512 0.08541167 0.020517647 0.08667594 -0.031415544 -0.04605152
0.06690183 0.06157042 -0.005039908 -0.016232222 0.07699631 0.04448946 -0.044733744 -0.03426292
-0.060827218 0.090104416 -0.08990414 -0.0065107867 -0.028792124 0.007316746 0.011135116 0.050875798
-0.050325423 0.029696405 -0.021447606 0.059327275 -0.056894116 -0.02942247 -0.08864433 0.044739738
-0.06773917 0.06509578 -0.053943865 0.038916036 0.0047230497 -0.067772105 -0.006176457 0.017956942
0.0515541 -0.0619688 0.087400004 0.044076517 0.054641873 0.037765563 0.037338614 -0.019389547
-0.07119775 0.06383741 -0.0828159 0.04407084 0.09013592 -0.00637836 0.0002431944 -0.050694354
-0.01789672 0.07294135 -0.08915486 0.020644762 0.08353667 -0.04032907 -0.01811421 -0.00021936744
-0.08772436 0.037511617 0.001796715 -0.04830558 -0.08640434 0.05846876 -0.0489813 -0.088695824
0.030757807 0.007978775 -0.06992016 -0.03227939 0.08967398 0.03401941 0.04838413 -0.029080994
-0.002439119 0.08294535 -0.033976067 0.023374014 0.075213835 0.072910205 0.08929074 0.0401012
0.060077816 -0.02356121 0.06070538 -0.069574535 -0.04747119 0.08343628 -0.088407 -0.0021514446
0.071114525 -0.090247236 0.05874686 0.03387566 -0.03706134 -0.012574658 0.08541867 -0.07076192
0.027493805 -0.05684768 0.08974469 0.020381361 -0.04984938 0.07663509 -0.038947087 0.0823728
0.014704645 0.09064987 0.014482878 -0.020209074 0.038999513 0.04915431 0.08251846 -0.05160827
-0.05948452 0.014603928 -0.061703272 0.0060650334 -0.02943658 -0.020594642 -0.008383296 -0.054900985

fc2.bias f4 [84]
00000000: ee3e acbd 1388 2dbd 8886 41bd 96c9 42bd
00000010: c015 abbd a025 5e3c 40e6 6b3c a0f0 fabb
00000020: 88f5 a23d 8008 073a c0b1 0f3d 4824 463c
00000030: b8aa 4a3d 729c 4dbd 2acc 92bd 0090 7a3a
00000040: c0fc fe3a f22c 5abd 2c7a f33c a9a8 b3bd
00000050: 1838 543c 04d9 03bd dc37 b03c 3111 a1bd
00000060: 0e99 9e3d ad67 16bd fdfe 2abd bcad 503d
00000070: b0e6 5a3d 93db 1abd bcba ed3c 90d8 f43c
00000080: c43a 373d d40a a83d 28fa 5f3d 5cbe 443d
00000090: f4d3 1b3d d0ec 5c3d e8fa 90bc c060 c23c
000000a0: 1c8a 0c3d 99e8 0dbd 243a d33c 6c0b d33c
000000b0: dc71 bebc f8c3 f43c c4bd e23c a446 e23c
000000c0: 445b d63c 16df 94bd dc8b 89bd 9821 a33d
000000d0: 5bcd 75bd bc53 743d b368 8bbd 581a 023d
000000e0: 8075 4e3d 3afb 8f3d e41a 323d e25a 893d
000000f0: 27c2 28bd 64a1 cd3c 8063 363b 3efb a6bd
00000100: b457 6d3d e803 6bbc 1c4e 3a3d 98da 793d
00000110: 00dd 1eba 60c7 4e3b 7432 78bd 0dca 65bd
00000120: 05c4 85bd eaed 92bd 2c24 9d3d 0a78 9d3d
00000130: d083 a4bd bce4 5c3d 0021 7eba 648c a83d
00000140: 108b f7bc f045 493d e2a9 8e3d 8023 d13b
-0.084104404 -0.0423661 -0.04724744 -0.04755553 -0.08353758 0.013558775 0.014398158 -0.0076580793
0.079569876 0.0005151108 0.035081625 0.012093611 0.049479216 -0.050198026 -0.071678475 0.0009558201
0.0019453987 -0.05326552 0.029721342 -0.08772404 0.012952827 -0.032189384 0.02151101 -0.07864607
0.077440366 -0.036719967 -0.041747082 0.050946936 0.053442657 -0.03780706 0.029019706 0.029888421
0.044733778 0.0820519 0.054681927 0.048033103 0.03804393 0.05393678 -0.017697766 0.023727775
0.0343114 -0.03464565 0.02578456 0.025762282 -0.023247652 0.029878601 0.027678378 0.027621575
0.026166566 -0.07269113 -0.06716129 0.07965392 -0.060010295 0.059650168 -0.06807079 0.031763405
0.050405025 0.070303395 0.043482676 0.06706788 -0.041200783 0.025101371 0.0027830303 -0.081533894
0.05794497 -0.014344193 0.045484647 0.060999483 -0.0006060153 0.0031551942 -0.06059499 -0.056100894
-0.065315284 -0.07174285 0.07672915 0.07688911 -0.08032954 0.053929076 -0.00096942484 0.082299024
-0.030217677 0.049138963 0.06965996 0.0063824058

fc3.weight f4 [10, 84]
00000000: f168 a8bd 6ccb b0bd 6d79 ccbd e6ee 513d
00000010: 782b 173c c01a 87bc caa3 35bd 7884 13bc
00000020: f566 81bd f55f 75bd a6c3 7cbd 4006 feba
00000030: a59a 91bd 8969 923d d856 44bc f6c7 cfbd
00000040: e0c4 b2bd 7116 6dbd e2f8 02bd 2ad3 613d
00000050: da54 09bd ea90 2f3d 60d5 11bd 4f4d 953d
00000060: b583 cd3d 2077 1fbc 74ce ab3c d4e3 87bd
00000070: 5ef3 dcbd 1a9b 783d 39a8 803d 0985 47bd
00000080: fbfe 96bd 94b9 8c3c de9d 92bd 5422 7dbd
00000090: 96f5 89bd 80f8 c4bb e038 a83b 9440 f03c
000000a0: e24a 27bd 4c3f 9b3c 1346 63bd b061 c43b
000000b0: ccee b1bd 442a 95bd a831 1abd fded 813d
000000c0: c825 b9bd 02c3 96bd 2623 17bd 3c2b e0bc
000000d0: c6db 4d3d 5566 993d 0059 1d3c 4832 a9bd
000000e0: 5a54 1fbd 4f0a 903d 9913 8c3d 70ea bebd
000000f0: 1c03 56bd 5021 abbb 86df 123d 1d31 9f3d
00000100: 30d4 7abc 3826 63bc c800 3a3c 08ec b8bc
00000110: d927 60bd 03e7 bdbd 42fe 05bd 3e4b dcbd
00000120: 5080 703c 1853 6d3c 18c2 bcbd 489c 76bc
00000130: 6242 0bbd ab91 c33d 73f7 8f3d 03fc b73d
00000140: 538a a7bd 5659 4a3d d00e aa3b 703a a2bc
00000150: 6669 93bd d6d1 99bd a9ac c13d 878a 9c3d
00000160: fc1f 2ebd 50b2 e1bb b63f 3b3d 70d4 a7bd
00000170: ac63 f4bc 8a77 793d 76fc 98bd b06b 00bd
00000180: 1c4b 97bc e864 80bd 2333 77bd 00c7 bc39
00000190: caf9 1dbd 03fa ccbd 870e 963d d2c6 503d
000001a0: 4a9a d7bd 0c17 e63c 8049 3dba 74a9 bd3c
000001b0: 4270 11bd 3fd9 d4bd b3c3 bb3d b416 9e3c
000001c0: e828 0abd 9940 a63d a305 4bbd 182f 6bbc
000001d0: 8cf6 21bd 06c4 563d 8ba9 b33d 1782 bd3d
000001e0: 4f44 a8bd e48d 98bc f63e 563d 56f7 793d
000001f0: 00a4 c739 08d6 41bc 7ac1 313d 404d dbba
00000200: c6cd acbd 4c64 85bd 2e10 213d c378 aa3d
00000210: 187a b7bc 738e 8b3d 25a3 9e3d 005d c9bd
00000220: 4c26 80bd c0e4 b9bb 8864 12bc fe5e 723d
00000230: 205f c4bc c6a8 7a3d 2026 8d3b 40ba 23bc
00000240: 30c7 05bd cb3e a1bd b063 2dbc 183e c3bd
00000250: 8db9 d43d 002e 773a 3b50 c13d 340f e33c
00000260: dd88 9e3d e05b 89bb 3cda cb3c 884b 82bc
00000270: b6ac 413d 443d 48bd 5864 23bd a35f 93bd
00000280: 0efd 643d eaa7 513d 6d1e 983d 45fb de3d
00000290: 2542 a83d e6ad 2dbd a214 5fbd 6ad0 373d
000002a0: e647 a2bd 9632 19bd 5a92 87bd d5bd c73d
000002b0: 1883 1ebd 62c3 15bd 18d5 6ebc 7ee3 7cbd
000002c0: a499 fd3c 1ba5 9b3d 4072 c4bd 73f1 81bd
000002d0: 287d 11bd c747 953d 563a 6c3d 6958 d4bd
000002e0: 6ab9 93bd cd23 933d 109f a2bd a7c0 843d
000002f0: 32b1 3bbd d2e4 abbd f88f 21bc e292 c1bd
00000300: 30ae a33b 2a61 723d b0c4 1bbc 50c2 73bd
00000310: 65ea bc3d 80c4 8eba 6a47 003d 9b73 a13d
00000320: c61a 653d 30a9 3fbc 3878 d1bd 16e2 81bd
00000330: 6288 363d abfc 99bd 0dfa d9bd 8d3c ccbd
00000340: 4f07 a63d 537a aebd 0090 4bbb dc96 02bd
00000350: 0c63 e0bc 61b4 8c3d 570e ba3d 1ebe adbd
00000360: 43d6 b53d 50a0 05bd 485e bbbc e0eb 5dbc
00000370: ee91 5fbd 570b 6dbd e6a1 ccbd cbd9 a73d
00000380: 860b 1cbd a98f c33d 46b7 9dbd 6367 de3d
00000390: 0230 36bd b1f8 953d 199e dcbd c0b0 a2ba
000003a0: 7ded debd f2cb 5f3d 7508 9c3d d8aa 75bc
000003b0: 84bd b2bd afd4 8fbd c3b9 c23d 4230 463d
000003c0: 5f0d 823d 0605 a9bd c8bb cebc 1255 c9bd
000003d0: 50c4 e8bb 974b c03d 9f3b c23d 95f4 873d
000003e0: 081c bcbd 28db 4abc cd6d aa3d 5a93 1d3d
000003f0: a8e6 4bbc 9f3d 933d 6cb2 92bd 29d4 833d
-0.08223141 -0.0863255 -0.09984098 0.051253222 0.009226672 -0.016492248 -0.044345655 -0.009003751
-0.063184656 -0.059905965 -0.061710022 -0.0019380525 -0.07109574 0.071490355 -0.011983596 -0.101455614
-0.08728957 -0.05788273 -0.031975634 0.055133022 -0.033528186 0.04286281 -0.03560388 0.07290136
0.10034887 -0.009732991 0.020972468 -0.06635252 -0.10788606 0.06069479 0.06282086 -0.048710857
-0.073728524 0.017178334 -0.07159017 -0.061800316 -0.06736295 -0.006011069 0.005133733 0.029327668
-0.0408429 0.01895108 -0.05548675 0.0059930906 -0.08688125 -0.07283452 -0.037645012 0.06344221
-0.09040409 -0.073614135 -0.036898755 -0.027364366 0.05025842 0.074902214 0.009603739 -0.082615435
-0.038898803 0.07033216 0.068396755 -0.09322059 -0.05224906 -0.005222477 0.0358577 0.077730395
-0.0153093785 -0.0138640925 0.011352725 -0.022573486 -0.0547255 -0.092725776 -0.032713182 -0.10756539
0.01467903 0.014485143 -0.09216708 -0.015051909 -0.033998854 0.09549268 0.07029619 0.08983614
-0.0818068 0.049401604 0.005189754 -0.019803256 -0.071978375 -0.07510726 0.094567604 0.076436095
-0.04251097 -0.0068877116 0.045715056 -0.08194816 -0.029832684 0.060905017 -0.07470028 -0.0313527
-0.018468432 -0.06269246 -0.060351502 0.0003600642 -0.038568296 -0.100086235 0.073269896 0.05097086
-0.10527475 0.028087161 -0.000722073 0.02315209 -0.035507448 -0.10392999 0.09168186 0.019297935
-0.033730417 0.0811779 -0.049565922 -0.01435449 -0.039541766 0.052433036 0.08772572 0.09253328
-0.08216154 -0.018622346 0.052306138 0.061026894 0.00038078427 -0.011830814 0.043397404 -0.0016731396
-0.08437686 -0.06513271 0.03932207 0.08323815 -0.022397086 0.068142794 0.07745961 -0.098321915
-0.062573045 -0.005673021 -0.008935101 0.059172623 -0.02397114 0.06119611 0.0043075234 -0.009993136
-0.032660663 -0.07873305 -0.010582849 -0.09533328 0.103869535 0.0009429157 0.09439131 0.02771721
0.07740948 -0.0041918606 0.024884336 -0.015905157 0.04728385 -0.048886552 -0.039890617 -0.07195976
0.055905394 0.051185526 0.07427678 0.108877696 0.08215741 -0.04240217 -0.054463036 0.044876494
-0.0792387 -0.037401758 -0.06619711 0.097530045 -0.03869924 -0.036563285 -0.014577173 -0.06174039
0.03095705 0.07599851 -0.09592104 -0.06344881 -0.03551975 0.07289081 0.05767282 -0.103684254
-0.07213099 0.07184563 -0.07940495 0.06482058 -0.045823283 -0.083932534 -0.009860985 -0.09451844
0.00499513 0.059174694 -0.009507343 -0.059511483 0.09224395 -0.0010892302 0.031318106 0.07883378
0.055933736 -0.011698052 -0.10228008 -0.063419506 0.04456366 -0.07518896 -0.106433965 -0.09972487
0.08106863 -0.08519425 -0.0031061172 -0.031882152 -0.02739098 0.06870342 0.09084766 -0.084835276
0.08878758 -0.03262359 -0.022872105 -0.0135450065 -0.05458253 -0.057872143 -0.09991817 0.081958376
-0.038096927 0.095488854 -0.07700972 0.10859563 -0.044479378 0.07322825 -0.10772342 -0.0012412295
-0.10885141 0.054637857 0.076188006 -0.014994346 -0.087275535 -0.07022988 0.095080875 0.048385866
0.063502066 -0.08252911 -0.025236025 -0.09830679 -0.0071034804 0.093894176 0.09484028 0.06638447
-0.09185034 -0.0123813525 0.08321724 0.038470604 -0.012445129 0.07189488 -0.071629375 0.06436951

fc3.bias f4 [10]
00000000: 01b8 d43d ca2a 403d b103 57bd d2d6 663d
00000010: 5623 2f3d d8e7 93bd e59e a23d e2d4 cfbd
00000020: 0690 3cbd cbbd 9d3d
0.103866585 0.046915807 -0.052493755 0.056357212 0.04275831 -0.07221955 0.07940463 -0.10148026
-0.04603579 0.07702216
