models/feed_forward.onnx (onnx, 318554 bytes, 4 tensors)

l1.bias f4 [100]
00000000: a10e 073d 002e cebc 9862 533c d217 5bbc
00000010: e0ed 3b3b 407f 67bc 4242 e93c c0d3 253c
00000020: 2281 ef3c 03e6 0abd 0014 b33a 389c c9bb
00000030: 2053 2dbb 60c4 513c 30bb 383c ec8e c13c
00000040: caaa 6ebc 00d1 0439 d09c a93c b66e 9a3c
00000050: 6c7d c13c 75db 85bc 95d7 8bbc 239a febc
00000060: 8022 3fbb e319 f3bc 5065 033b 8056 2b3c
00000070: d25c 20bc fa45 aebc d8c7 f4bc ade5 113d
00000080: 7043 833b 10e7 243c 78ec 2ebc 2431 10bc
00000090: 1c68 71bc f82e 0ebc d238 b83c d582 0c3d
000000a0: f87c 82bb 3ce7 823c 1946 0b3d 7319 aebc
000000b0: bac1 0cbd 23ff 89bc f0cd a83c 30e9 0ebd
000000c0: 0a4b c3bc b24c cd3c 0c93 d4bc 48a8 d73b
000000d0: 9aee a23c 80e9 f239 75fb d1bc 843e 09bc
000000e0: 3005 383b 2545 8dbc 9849 913b b263 c93c
000000f0: 8568 8dbc 6a06 2dbc 3324 a5bc 20ab 3d3b
00000100: ad03 013d 9058 433b b040 583b b0af fabb
00000110: 9601 9c3c 6478 4f3c 32fc 61bc 2e8d afbc
00000120: 125a dc3c 5cc9 01bd 48ae 9d3c 32c5 6abc
00000130: 4e13 f93c 765d c23c e336 e0bc 2e8b 40bc
00000140: 1745 0f3d 5f9a 11bd 10e3 723b 00ab 15bb
00000150: 2ab9 69bc ce52 d8bc 1e0f e8bc 2546 0f3d
00000160: f2d2 b43c fc44 c2bc dc06 0dbc 481a b7bc
00000170: 98f1 36bc f282 08bc c594 d2bc 6c1c 94bc
00000180: df31 0abd 6e28 a03c b0f7 c63c 8542 b9bc
0.032972936 -0.025168419 0.012901925 -0.013372378 0.002867572 -0.01412946 0.028473977 0.010121286
0.02923638 -0.033910763 0.0013662577 -0.006152656 -0.0026447251 0.012803167 0.011275098 0.02362772
-0.0145670865 0.0001266636 0.020704657 0.01885162 0.023619376 -0.016339997 -0.017070571 -0.031079357
-0.002916485 -0.02967543 0.00200494 0.010457635 -0.009787755 -0.021273602 -0.02988045 0.035619427
0.004005842 0.010064855 -0.010676496 -0.008800779 -0.014734294 -0.00867819 0.022488032 0.03430446
-0.0039821826 0.015979402 0.034002397 -0.02125237 -0.03436444 -0.016845291 0.020606011 -0.034890354
-0.023839492 0.025060985 -0.025949024 0.00658134 0.019889165 0.00046331808 -0.0256326 -0.008376721
0.0028079264 -0.017244885 0.004433822 0.024583671 -0.017261753 -0.010560611 -0.020158863 0.002894111
0.031497646 0.0029807426 0.003299754 -0.007650338 0.019043725 0.012662981 -0.013793038 -0.021429624
0.026898418 -0.031686172 0.019248143 -0.014329242 0.030404713 0.023726206 -0.027369922 -0.011751933
0.034978 -0.03554761 0.003706161 -0.002283752 -0.014265338 -0.026406672 -0.028327521 0.034979004
0.022073243 -0.023714535 -0.008607592 -0.022351399 -0.011165999 -0.008332001 -0.025705704 -0.018079959
-0.033738967 0.019550528 0.024288028 -0.022614727

l2.bias f4 [10]
00000000: e079 46bd c3bb 6cbd 609f 9cbb 1869 25bc
00000010: 127c c6bd 5411 ee3c 196d a23d abf8 a53d
00000020: 57f5 7bbd f2d8 293d
-0.048456073 -0.05779625 -0.004779741 -0.010095857 -0.09691633 0.029060997 0.07930965 0.0810407
-0.06151327 0.04146666

onnx::MatMul_12 f4 [784, 100]
00000000: 282b e7bc 8015 503a 7ab5 bcbc f062 343b
00000010: 50d7 483c caac 983c 4a7e 04bd 605c eaba
00000020: 6286 cd3c 2855 023c 807e 51bc 37bf 113d
00000030: 9cec ca3c 20f2 d43b 180c c8bc eec3 48bc
00000040: 6081 2ebb 20ca 0abd 3c38 1c3c 1823 f2bc
00000050: b050 503b 20fa c03a 02e0 e93c a7f0 97bc
00000060: 4edc e53c 80c7 ec3b c3cd 053d 2ead e13c
00000070: 007e c73b 555f b0bc 8e47 51bc 78d2 903b
00000080: 5561 b2bc c2cd d43c e28a c63c 8013 fe39
00000090: e4cd 01bc 6815 913c 638c 0ebd 027d 9f3c
000000a0: fc9b 3dbc b09c aebb b10a f5bc e01d 4dbb
000000b0: 323b 4cbc 9a7d a9bc c838 eabb 1b47 083d
000000c0: 8ee5 e33c 48fe d7bb 4a26 ca3c 0312 fabc
000000d0: 2453 e2bb 2c7e a53c e890 183c da74 a3bc
000000e0: e820 833c 80ab 093c acd8 f2bc 00f4 eabb
000000f0: 2ec1 bd3c 8a96 de3c 0522 103d 885b e73b
00000100: fccb c1bc 651c 8cbc 9885 5abc aef8 32bc
00000110: 0381 d8bc f871 d8bc 3c4f bebc 64bd acbb
00000120: ac8b a53c 20eb fa3b c05f cebb 2057 84bc
00000130: fc1e d8bc 21ef f3bc ea0e ce3c 2428 95bb
00000140: 7ac3 893c 8438 433c 7801 5e3c 1c14 a93c
00000150: 1b96 0a3d d077 b4bc 608d 143c d00e 89bb
00000160: 5831 933b 9c47 7a3c 9abe c43c dcb8 d2bc
00000170: 6520 e2bc 2318 12bd e6a6 ce3c c067 593c
00000180: df97 0e3d 5241 1ebc 4a2f c03c c209 b43c
00000190: a0d3 d7bc c382 f7bc 4013 1b3c aee2 9c3c
000001a0: d040 d3bc ca4f d6bc 80d1 8739 7611 fc3c
000001b0: 5c68 dabb d0f5 453b 9577 9fbc 88ac cb3b
000001c0: 40f5 d4bb aae0 c73c e855 923c 7080 91bc
000001d0: 14d5 efbb 7859 913c d0cb b03c 6531 0b3d
000001e0: 3246 38bc 4460 363c c088 e0ba 48c0 9a3b
000001f0: fc2d 6abc c38e 083d 7c06 5b3c 8451 013c
00000200: fa64 fdbc b7ad 0c3d a034 e2bc 3338 0a3d
00000210: aafc d23c e021 0c3b c007 f83b d48a 02bd
00000220: 3833 adbc 3eca adbc 5e9c d1bc 33bf d7bc
00000230: 8c23 10bd d851 9c3b deb0 e13c 3c7f e8bc
00000240: 00d4 b838 9296 9a3c 94fc c4bb b0c3 4a3c
00000250: 882f f6bb 009d 9fba 7657 e53c d3f7 d5bc
00000260: a25e b03c a812 3d3c 094d 073d 36b6 06bd
00000270: f2bf 47bc d284 ff3c f876 dbbc 1a4c bb3c
00000280: b89b c13c 1d06 0fbd 8033 3a3b ac3e f9bc
00000290: c587 8ebc b0f3 0bbd 7ca0 95bc 1047 f03b
000002a0: 8080 c73c 142a 883c 4a30 8d3c 30a4 443b
000002b0: d805 c63c 502f 763b 26be 2fbc d313 a4bc
000002c0: 6aa5 06bd 9041 fd3b 7803 b7bc e1b8 0e3d
000002d0: 9850 b53c f05d 67bb 1865 3a3c c38c c3bc
000002e0: 20e7 6c3b 003c 0d3a f251 11bc a6cc cf3c
000002f0: 8037 35ba a3b0 d3bc b0a4 3cbb 8843 323c
00000300: 53c0 11bd 1408 f8bb 390f 0d3d 4532 12bd
00000310: e0e2 13bc 6035 baba f81b ad3b c09f 993a
00000320: 8ec0 04bd 6807 90bb 0000 37bb fe7b e43c
00000330: 0004 8e38 70f0 933b e8ed bf3c a8fe 8f3c
00000340: f803 0e3c a4d6 1a3c 7840 b33b 8cde b23c
00000350: 1025 1f3b ca78 b13c f02b 5ebb 4dfa 00bd
00000360: b0bf 653c 90c9 ae3b e44a 3b3c 2f0a 033d
00000370: 23e0 e7bc 3a15 a33c 20fe 00bb 89d3 053d
00000380: 7e82 993c b045 2c3b c885 aabb fc19 04bc
00000390: 405a f93a 8ee0 52bc 06c8 943c c834 613c
000003a0: 9c22 d2bb 8571 e9bc 94a1 7e3c a05f ec3a
000003b0: 941e 0cbd 301c 8f3c 88e0 cc3c 2a56 d3bc
000003c0: 80a8 a3bc e022 26bc ccbf 9fbc bc44 d1bc
000003d0: 2196 103d 73b6 073d fc3b ffbc caf7 95bc
000003e0: d360 e3bc 1859 edbc 785b 37bc e86d bb3c
000003f0: 80e5 8239 9fe5 103d daf3 843c 4712 82bc
-0.02821882 0.0007937774 -0.023035754 0.0027524792 0.012258366 0.01863708 -0.032347 -0.0017880313
0.025088493 0.007954873 -0.012786508 0.035582747 0.024771027 0.00649859 -0.02441983 -0.0122537445
-0.0026627406 -0.033884168 0.009534892 -0.02955775 0.0031786375 0.001472298 0.028549198 -0.01854737
0.028059151 0.0072259307 0.032666933 0.027548399 0.0060880184 -0.021529833 -0.012773408 0.004419621
-0.021774927 0.02597702 0.024236146 0.00048461184 -0.007922623 0.017710403 -0.034801852 0.019468788
-0.011572834 -0.005328737 -0.029912325 -0.0031298324 -0.012465285 -0.020689774 -0.007147882 0.033270936
0.027819421 -0.006591592 0.02467646 -0.030526167 -0.006906884 0.020201765 0.009311892 -0.01995318
0.016006902 0.008402705 -0.029644333 -0.0071702003 0.023163404 0.027171392 0.035188694 0.007060472
-0.023656838 -0.017103383 -0.013337515 -0.010923548 -0.026428705 -0.026421532 -0.023231141 -0.0052716006
0.020208202 0.0076574236 -0.0062980354 -0.016154826 -0.026381962 -0.029777111 0.025153596 -0.0045519043
0.016816843 0.01191533 0.013550155 0.020639472 0.033834558 -0.022029787 0.00906691 -0.004182674
0.004491966 0.015275862 0.024016667 -0.025722913 -0.027603338 -0.03566755 0.025226068 0.013269365
0.034812804 -0.009659128 0.02346005 0.02197731 -0.026346028 -0.03021372 0.009465039 0.019151058
-0.025787741 -0.026161093 0.00025905296 0.030770045 -0.0066652726 0.003020633 -0.0194662 0.0062156357
-0.0064989626 0.02439912 0.017863229 -0.01776144 -0.007319102 0.017742857 0.02158156 0.033982653
-0.011247205 0.01113135 -0.0017130598 0.0047226287 -0.01429319 0.033339273 0.013368245 0.00789297
-0.030931938 0.034345355 -0.027612984 0.033745002 0.025755245 0.0021382496 0.0075692832 -0.031870678
-0.021142587 -0.0212146 -0.025587257 -0.026336288 -0.03519015 0.0047704987 0.027550157 -0.028380983
8.813292e-05 0.018870626 -0.006011555 0.012375757 -0.0075129904 -0.0012177527 0.027995806 -0.026119148
0.0215295 0.0115400925 0.03303245 -0.032888614 -0.012191759 0.031191263 -0.026790127 0.022863436
0.023633823 -0.03491794 0.0028412044 -0.030425392 -0.017398724 -0.034167945 -0.018265001 0.00733269
0.024353266 0.016621627 0.01723494 0.003000509 0.024172708 0.0037564822 -0.010726487 -0.020028984
-0.032872595 0.007728763 -0.022340521 0.034844283 0.022133157 -0.0035303794 0.011376642 -0.023870831
0.0036148503 0.0005387664 -0.008869635 0.025366139 -0.0006912872 -0.025841063 -0.0028784685 0.0108803585
-0.035583805 -0.0075693224 0.034438346 -0.035692472 -0.009026259 -0.0014206581 0.005282875 0.0011720583
-0.032410197 -0.004395414 -0.0027923584 0.027891155 6.771833e-05 0.0045147464 0.023428872 0.017577484
0.008667938 0.009450588 0.0054703318 0.021834634 0.0024283566 0.021664042 -0.00339007 -0.031488705
0.014022753 0.0053340867 0.01143143 0.031992134 -0.028305119 0.019907583 -0.001968272 0.03267244
0.018738981 0.0026286654 -0.0052039362 -0.008062836 0.0019024089 -0.012870921 0.018161785 0.013745494
-0.006412817 -0.028496513 0.015541453 0.001803387 -0.03420885 0.017469496 0.025009409 -0.025797922
-0.019977808 -0.010140151 -0.019500636 -0.02554547 0.035299424 0.03313298 -0.031156532 -0.018306632
-0.02775613 -0.028973147 -0.011191241 0.022879556 0.00024966523 0.035375234 0.016229559 -0.015877856

onnx::MatMul_13 f4 [100, 10]
00000000: a8bc 3e3c 00d6 1c39 e8b8 49bc 07a4 69bd
00000010: 406b 57bd 0844 813c e2ce b5bd f77f 27bd
00000020: 4326 983d d0fe 93bb bc79 d63c 4a1f a8bd
00000030: 0288 0a3d c83e 8cbd 9878 293c f71f 51bd
00000040: 88bc d2bc c078 77bb ceff a9bd 4d48 bcbd
00000050: 0883 c5bd 204e 16bd a1b7 973d a820 413c
00000060: aae8 b1bd d4b6 dbbc 7fcc c8bd 304b 5cbc
00000070: 5c4a d53c ad70 b63d 6d47 c63d 9a08 a8bd
00000080: ed20 9abd 8643 17bd 9d1a 47bd a08a c23b
00000090: 10ab 18bd f4a8 18bd 9690 00bd 9ef4 a7bd
000000a0: fb22 a2bd e6d9 753d 9879 bf3c d82a 233c
000000b0: b030 b2bb 707d 173c 68b7 583c 6b6c b83d
000000c0: 500c 953b 8fba b1bd 30f6 613c 7b0b c23d
000000d0: cc6e c13c 9261 383d d14b bf3d d37d b93d
000000e0: b05d 593c 2ce1 11bd a899 6dbc a667 653d
000000f0: 6a03 0abd 2701 b7bd 8524 bd3d 6d0d be3d
00000100: 61cd bc3d dcfc 02bd 8a80 3bbd b44d e9bc
00000110: e4bb ce3c 0dd0 49bd 5574 883d f317 2abd
00000120: e6da 2b3d 106e 503c 0a76 4a3d 4d88 27bd
00000130: 6a85 063d 260d 373d 9ace 71bd f67c 4b3d
00000140: e84e 70bc dd31 1ebd 65d4 90bd 98f1 9abd
00000150: a015 4dbd d50a b03d b615 3b3d 1066 3cbd
00000160: 3a18 38bd 56f4 1e3d a2f0 4b3d f81d e2bc
00000170: 6e50 4e3d 1069 243c e631 5f3d 3a1a 85bd
00000180: a9c4 8a3d 4083 63bd 5d76 69bd 0028 f239
00000190: 54c0 82bc d0e9 f03b 608e 2e3b 787b c5bc
000001a0: 683f 3cbc f06e 75bd 4093 57bc a067 a53b
000001b0: 68ae 713c f360 973d 40c8 9bbd 1e3a 84bd
000001c0: 809d b9bd d4a6 9b3c c01a 653c 7472 82bd
000001d0: 6713 ba3d 6030 9fbb 7d2b 1cbd 0051 75bb
000001e0: b882 aebd d6ce 13bd 564b 2a3d 7642 613d
000001f0: e5bd c4bd f8b3 a5bd d9f0 bd3d a0ed f7bc
00000200: 0896 8abd 0ebe 81bd 5de9 50bd 106a adbd
00000210: e4df db3c 0a57 0ebd c6dc 303d 0089 22bb
00000220: c375 b0bd a39c 95bd 3171 cc3d 344e cdbc
00000230: 1081 03bd 6719 3cbd 289d 013c 23b0 c73d
00000240: 2247 7a3d eb6c cbbd 0e43 5d3d 1049 33bd
00000250: 208c c13b a025 8a3c 254e 8f3d 64fa 11bd
00000260: b041 6ebd cb28 a8bd 3dc7 823d 82c1 acbd
00000270: 30e0 263c b197 883d 998d c33d e8ea 9cbc
00000280: 0036 a0bc 20a6 f0bc 00a3 a0bb 0b2a bfbd
00000290: c0c7 6d3c 25fa 993d 8224 bbbd 00c9 eebb
000002a0: dc9d 88bd e0bd c63b 722c 91bd 87cb bdbd
000002b0: b04a 5a3c 8f4e b0bd eea6 8bbd 8263 7e3d
000002c0: c829 bebc 930e 853d 42f5 93bd d240 413d
000002d0: 1259 a5bd 9ae9 8bbd d0f2 9abd 0084 713b
000002e0: 0799 babd a8be 7c3c 829b 023d 9453 d63c
000002f0: e871 a6bc c37d 59bd 04cb e03c aab9 adbd
00000300: 62f9 363d d9b3 b73d fad1 743d 459e a03d
00000310: 5db1 803d fd51 61bd 0ddb 51bd 983c b3bd
00000320: be6c 613d 3295 033d b0c7 723c 00bf 7e3a
00000330: a0ff 81bb fc7f 0ebd 8ef6 763d 1326 43bd
00000340: c03a d8bc 0f79 b93d 2ae5 23bd ec63 b53c
00000350: d0c3 d8bb 38ff af3c 8caf 8dbc ba2f 563d
00000360: 0512 b9bd ddad be3d c7f4 5abd 930c 9bbd
00000370: 6b91 943d 86d9 313d e5ca ac3d 5627 503d
00000380: d01f 013c b646 763d fa7c 273d 72b1 5d3d
00000390: cc3f bebc 60fc be3c f22e 82bd 806a 6bbc
000003a0: 8617 023d 5292 b4bd dd09 94bd 683c 94bd
000003b0: 5044 033c a491 ea3c 007b 21ba 536f 44bd
000003c0: 315f 943d 6f8e b23d dd4a 26bd f329 a1bd
000003d0: 070f a83d 203c 39bd 148f 873c 9633 81bd
000003e0: ea07 c5bd e1ac 883d 6d33 2fbd 6a95 0c3d
000003f0: f0df 573c 720d 3d3d 1747 b93d 5260 043d
0.011641659 0.0001495704 -0.0123121515 -0.057041194 -0.052592516 0.01577951 -0.088773504 -0.04089352
0.07429173 -0.00451646 0.026181094 -0.08209093 0.033821113 -0.06847912 0.010343693 -0.051055875
-0.025724664 -0.0037761182 -0.08300744 -0.09193478 -0.09644133 -0.0366956 0.07408071 0.011787571
-0.08686955 -0.026820578 -0.098046295 -0.0134456605 0.026036434 0.0890821 0.09681592 -0.082047656
-0.07525811 -0.03692963 -0.048609365 0.0059369355 -0.037272513 -0.0372705 -0.031387888 -0.08200954
-0.07916828 0.060022257 0.02337341 0.009958945 -0.005437933 0.009246215 0.013227321 0.09005054
0.004548587 -0.08678161 0.013791606 0.09474846 0.023612402 0.045014925 0.09340633 0.09057202
0.013266966 -0.03561513 -0.014501967 0.05600705 -0.033694662 -0.08935767 0.09235481 0.092799045
0.092188604 -0.031979427 -0.04577688 -0.028479435 0.025236078 -0.04927068 0.066628136 -0.041526746
0.041956805 0.012721553 0.049428977 -0.04090147 0.032842077 0.044690274 -0.05903492 0.04967972
-0.01466725 -0.038621772 -0.07071761 -0.075656116 -0.05006945 0.08595816 0.045675002 -0.045995772
-0.04494498 0.038807236 0.049790032 -0.02760218 0.050369672 0.0100348145 0.054490946 -0.06499143
0.06775791 -0.05554509 -0.056997646 0.0004618764 -0.01596085 0.0073520914 0.0026635155 -0.024106726
-0.011489727 -0.05992025 -0.013157666 0.0050477535 0.014751054 0.073915385 -0.07606554 -0.064563975
-0.09063244 0.019000448 0.0139834285 -0.063694865 0.09085732 -0.0048580617 -0.03812741 -0.0037432313
-0.085210264 -0.036085926 0.041575752 0.054995023 -0.09606532 -0.08090967 0.09274454 -0.030264676
-0.067668974 -0.06335078 -0.051003803 -0.084674954 0.026840158 -0.034750976 0.043179296 -0.0024800897
-0.08616211 -0.07305267 0.09982527 -0.025061704 -0.032105505 -0.045922663 0.007911004 0.09750392
0.061102994 -0.09932884 0.054019026 -0.04377085 0.005906597 0.016863644 0.06997327 -0.03563918
-0.058168113 -0.08210906 0.06385658 -0.08435346 0.010185286 0.06669558 0.09548492 -0.01915498
-0.019557 -0.02937609 -0.0049022436 -0.09334191 0.014512956 0.075184144 -0.09137823 -0.0072871447
-0.06670734 0.0060651153 -0.070885554 -0.092673354 0.013323471 -0.08608734 -0.06818949 0.062106617
-0.023213282 0.064969204 -0.072245136 0.047180958 -0.080736294 -0.06831665 -0.07565844 0.003685236
-0.09111219 0.015426315 0.031886585 0.0261629 -0.020317987 -0.05309845 0.027440555 -0.08482678
0.044671424 0.0896985 0.05977056 0.078426875 0.06283829 -0.05500983 -0.051234294 -0.08751792
0.055035345 0.032124706 0.014818117 0.0009717792 -0.0039672405 -0.034790024 0.060293727 -0.047643732
-0.026395202 0.09056293 -0.04001347 0.022142373 -0.0066151395 0.021484002 -0.017295621 0.05229161
-0.0903664 0.093105055 -0.053456094 -0.07570758 0.07254299 0.043420337 0.084371366 0.050818764
0.00788112 0.06012603 0.04089067 0.054124303 -0.02322378 0.023313701 -0.0635661 -0.014368653
0.031760715 -0.08816971 -0.07228444 -0.07238084 0.008011892 0.0286339 -0.0006159991 -0.04795773
0.07244719 0.08718573 -0.04059874 -0.07869329 0.08205991 -0.045223355 0.016547717 -0.06308667
-0.0962065 0.06673599 -0.042773653 0.03432218 0.013175949 0.0461554 0.090467624 0.03231842
